Flask/Windows/static/model/modelLeft.tflite (tflite, 15040 bytes, 4 tensors)

sequential_6/dense_12/BiasAdd/ReadVariableOp/resource f4 [64]
00000000: 0000 0000 a20c cbbf b27c eebe 06ee 68bc
00000010: 1005 45bd 0000 0000 d2e8 783d 4e17 c6bc
00000020: 751e e4bc 0000 0000 0000 0000 bb0e 5abf
00000030: 0000 0000 5848 3dbf 0000 0000 2994 b1bb
00000040: 0000 0000 0000 0000 0000 0000 6fcb a4bf
00000050: 9497 0fbd b27d 8f3f 56e2 0f3f 0000 0000
00000060: 2daf c1bb 0000 0000 3e32 ebbe 0000 0000
00000070: 9f6e 73bc 0000 0000 3c31 1bbf 0000 0000
00000080: 30bb 42bf 1bb3 81be 6ddc 17bf f0e2 efbd
00000090: 0000 0000 0000 0000 0000 0000 9fb8 1ebe
000000a0: 951c c03f 0000 0000 0000 0000 26fb 7d3f
000000b0: 6a5f cf3f 0000 0000 62b6 063f d410 c9bb
000000c0: 472d 99bd c404 8cbf 0000 0000 500f 453d
000000d0: f9bf 58be cf5b a9be 0000 0000 90f3 853b
000000e0: 0000 0000 0000 0000 49b3 453f 325d 0bbc
000000f0: d6f4 b8bf 0000 0000 0000 0000 e2ce f6bc
0.0 -1.586323 -0.4657951 -0.014216905 -0.04810053 0.0 0.06076891 -0.024181034
-0.027846554 0.0 0.0 -0.85178727 0.0 -0.7393851 0.0 -0.0054192734
0.0 0.0 0.0 -1.2874583 -0.035056666 1.1210234 0.56204736 0.0
-0.005910775 0.0 -0.4593677 0.0 -0.014857917 0.0 -0.60622 0.0
-0.76066875 -0.2533196 -0.5932072 -0.11713207 0.0 0.0 0.0 -0.15500115
1.5008723 0.0 0.0 0.9921135 1.6200993 0.0 0.52622044 -0.0061360393
-0.07479339 -1.0938954 0.0 0.048110306 -0.21166982 -0.33077857 0.0 0.004087873
0.0 0.0 0.7722669 -0.008506106 -1.4449718 0.0 0.0 -0.030127946

sequential_6/dense_13/BiasAdd/ReadVariableOp/resource f4 [12]
00000000: 8603 bf3c 3191 3c3f a11e 283f 17f7 98be
00000010: 68f4 90bd c047 8bbe 5fca 85bf 83e1 3bbe
00000020: 8edb 96be 88e7 5d3f 4087 a3bf 8daf f53e
0.02331711 0.73659045 0.65671736 -0.29876015 -0.07077867 -0.27203178 -1.0452384 -0.18347745
-0.29464382 0.86681414 -1.277565 0.47985497

sequential_6/dense_12/MatMul f4 [64, 40]
00000000: e02c a73d 88cf 8ebc 207d ebbc 0989 67be
00000010: e041 633c 601c 57bc 4c93 4ebd dd5e 6dbe
00000020: c656 743e 7cb7 64bd 00cc 093a 0c0e 38be
00000030: a2f5 6a3e d02f 413d 3e4e 133e 50c1 5d3e
00000040: f81a e4bd 6091 83bd ca28 03be 082a 03bd
00000050: 0ce7 1f3e 85b4 02be e542 f8bd 8070 e3bb
00000060: bc35 cf3d 5c13 a73d 549a c83d 64e1 12be
00000070: 3825 d9bd c256 f3bd 7834 47bd d2cf 3ebe
00000080: 1416 a4bd 70c8 203e 6451 123e ecb9 bc3d
00000090: 6008 17be 829a 643e 99f1 38be 4483 06be
000000a0: 8671 57bf 1510 65bf e43f 82bd 5488 473e
000000b0: 3849 cebd 8976 98be 19b0 1c3f 3ed8 983f
000000c0: 0b22 1abd dade 2a3d 36a4 aa3d ed21 1a3e
000000d0: 2a92 b03d 580b d23e 4d96 cebe 5c0b 6cbe
000000e0: 4677 163f a85e 123f b39b 2e3e 4a05 fdbd
000000f0: 951c 51bf a6e0 c4be d71d 053f b6c3 8e3e
00000100: 542f 3cbf e17b d8be 6d3d 8ebf dbac 21c0
00000110: 91e1 9c3e 94a1 d03d ab94 d63e abdf f33e
00000120: 32b6 a33f 2141 0b3f 191c b8bd e619 01bf
00000130: 5a1b 0d40 5af4 673f 0a23 433f 9357 383f
00000140: 8bb3 9b3f 183b 14bd 1350 38bf 7fc5 6dbf
00000150: d567 353e f61e 943d 73a0 08be 1900 24bf
00000160: 52bf 473f 8f13 6dbf be3a 01bf 97ba 9ebe
00000170: 7b29 913f 6862 12bf 351b 9abe e0a0 b13e
00000180: 279b c13f 4c7c 673e e16a ab3e d565 273f
00000190: d703 91bf 44a4 653e 827f 733f 57bb 3fbf
000001a0: 08a4 0abf c5dd 753f e6a2 8e3f 891c a73e
000001b0: 3fe7 37bf 0d90 493f ae22 c83e 71e7 883e
000001c0: e509 6dbf 9472 2a3f 819b e63d 3a19 b5be
000001d0: 4b04 29bf f390 4f3f 676a 2e3f 73c2 333e
000001e0: 7c27 e1bd f0df 80be ea44 69be 3cba 4c3e
000001f0: 9884 5a3e 7b16 54be ea07 3dbd a906 d7bd
00000200: d611 603e 1360 4ebe 4b08 2d3e 4594 a9bd
00000210: 8497 c8bd f9a6 533e b1d1 a63b 9619 4cbe
00000220: 50d1 0c3e ac02 da3d 4b7b c9bd e6bd a73c
00000230: d3ec a53d 258f c93d 8634 4e3e cf17 58be
00000240: 1b1d 44bc 85d1 e13b db14 0fbe f0b5 40be
00000250: 20c6 ab3d f44f 5bbe 3912 ca3d adc3 9ebd
00000260: 7b9c 1a3e 48d4 08be ee0c 76be 6de0 d8bc
00000270: 2cf2 80be 9532 533e b9a9 593e f5b5 eb3d
00000280: 6ee2 fabf 6ea3 d2bf bc88 bfbe 5b9f 1f3f
00000290: a99e 79bf 991c 27bf 59d4 4d3e 00d2 0340
000002a0: 79e6 22bf 134b 583d a6db 48bf c3cb 8dbf
000002b0: 8f9b 81bd e58a ae3e 1044 f2be 34c6 41bf
000002c0: 38ea b93e 4237 593f 9206 e13d dcbe dfbe
000002d0: 72a0 f33f d875 8d3f 4f36 6bbd cd2b 0a3f
000002e0: 6673 7f3f ca68 753f a2e8 d73e 0dc7 abbf
000002f0: 5604 673f f83d 60bf 0847 94be d2ea 4fbf
00000300: f3ad 4f3f cabd 53be 3bc0 2c3f 90d3 983e
00000310: 8e7f 7d3f fa16 51be 52d3 0d3f e06c 2a3f
00000320: 12f8 bebd 8830 693d 6211 21be b81b 313d
00000330: 18cc efbc 80b9 d13a 1ef3 1f3e 201e 633c
00000340: 99f9 36be 28ff 883d 1849 1abe 0046 18bc
00000350: 4e2a 0b3e f44f c13d 7e90 86bd 76b5 0d3e
00000360: 98db 17be b87c 81bd 58ee acbd a6b0 d3bd
00000370: 481f f7bc d041 f63c 40ce 083e 0d30 22be
00000380: 549e 6fbd 3a4b 663e 309a a2bd 1aa9 51be
00000390: d87e 1e3d 10e4 633d 7665 b8bd 405b 10bc
000003a0: c0d4 ebbb 6ac1 81bd 508f 143c a61b 30be
000003b0: 9058 c33d 5491 36bd d89e b5bc f018 63be
000003c0: 5df4 76be ff6a bf3e b6ac ab3e dcc8 2e3d
000003d0: 5fc6 ab3e 681d 0abf 6d14 123e 8a44 7b3f
000003e0: 1d86 823d 19eb b2bd d8f1 1d3f 55dd 7d3f
000003f0: 982b ba3d 74be f6bc 10cb 86be 1648 02bf
0.08162856 -0.017432943 -0.028746188 -0.22610869 0.013870686 -0.013129324 -0.050433442 -0.23180719
0.23861226 -0.055839047 0.00052565336 -0.17974108 0.22945264 0.04716474 0.14385316 0.21655774
-0.111379564 -0.064242125 -0.12808529 -0.032022506 0.15615481 -0.12764175 -0.12122134 -0.0069409013
0.10117671 0.081579894 0.09795061 -0.14343792 -0.10602802 -0.11881782 -0.048634022 -0.18633965
-0.080120236 0.15701461 0.1428886 0.09215149 -0.14749289 0.22324565 -0.18060912 -0.13136011
-0.841576 -0.89477664 -0.063598424 0.19485599 -0.10072559 -0.29777935 0.61206204 1.1940992
-0.037630122 0.041716434 0.08332102 0.15052004 0.086216286 0.4102428 -0.40349045 -0.23051208
0.58775747 0.57175684 0.17051582 -0.123545244 -0.8168424 -0.38452643 0.51998657 0.2788369
-0.73509717 -0.42282012 -1.1112496 -2.5261753 0.30640844 0.101870686 0.419103 0.47631583
1.2789977 0.54396254 -0.08989734 -0.5043014 2.2047944 0.90607226 0.7622534 0.7200863
1.2164167 -0.03618917 -0.71997184 -0.9287948 0.1771539 0.07232468 -0.13342457 -0.6406265
0.78026307 -0.9260797 -0.5048026 -0.31001732 1.1340784 -0.57181406 -0.30098882 0.3469305
1.5125474 0.22606009 0.3347998 0.6538976 -1.1329297 0.22425944 0.95116436 -0.7489523
-0.5415654 0.9604152 1.1143463 0.32638958 -0.7183723 0.7873543 0.39088959 0.26739076
-0.9259322 0.6658108 0.11260129 -0.3537081 -0.66022176 0.8108055 0.6813111 0.17554645
-0.10993859 -0.2517085 -0.22780195 0.19992918 0.21339643 -0.207117 -0.046150126 -0.10499317
0.21881804 -0.20153837 0.16897695 -0.08280233 -0.09794524 0.20669164 0.005090915 -0.19931635
0.13751721 0.10645041 -0.098379694 0.020476293 0.08101811 0.09841756 0.20137224 -0.21102832
-0.01196983 0.0068914318 -0.139728 -0.18819404 0.08387399 -0.21417218 0.09866757 -0.07752166
0.15098755 -0.13362229 -0.2402837 -0.026474202 -0.25184762 0.20624764 0.2125615 0.11509315
-1.9600351 -1.6456125 -0.37409008 0.6235253 -0.9750772 -0.6527801 0.20100535 2.0596924
-0.63632923 0.05280597 -0.78460157 -1.1077808 -0.063284986 0.34090343 -0.47317553 -0.7569306
0.36311507 0.8484994 0.10987581 -0.43700302 1.9033339 1.1051588 -0.05742484 0.53973085
0.9978546 0.9586302 0.42169672 -1.342012 0.9024099 -0.87594557 -0.28960443 -0.8121768
0.811248 -0.20677868 0.6748082 0.2984891 0.9902276 -0.20418921 0.55400574 0.6657238
-0.093246594 0.05693105 -0.15729287 0.043239325 -0.029272124 0.0016000718 0.15620086 0.013862163
-0.17868651 0.06689292 -0.15066946 -0.009294033 0.13590357 0.09439078 -0.065705284 0.13838753
-0.14829862 -0.06322616 -0.08443898 -0.103364274 -0.030166283 0.030060679 0.13359928 -0.15838642
-0.058500603 0.22489634 -0.07939565 -0.20474663 0.038695186 0.05563742 -0.09003727 -0.008810818
-0.0071969926 -0.06335719 0.0090673715 -0.17198047 0.09538376 -0.04457219 -0.02217047 -0.22177482
-0.24116655 0.3738632 0.33530205 0.042672023 0.33549783 -0.5395112 0.14265604 0.9815146
0.06373236 -0.087362476 0.6169715 0.9916585 0.09090346 -0.030120112 -0.263268 -0.50891244

sequential_6/dense_13/MatMul f4 [12, 64]
00000000: 3edc 32be 678d 013e 6e70 873f 5dcc 27be
00000010: d0da ac3f 2c00 c93d c5de 0e40 9373 8bbe
00000020: 2e5b 72bd 3853 0d3d 8065 91bb f883 41bf
00000030: 3250 ddbd 2f7f b83f 403a 063c d101 2c3e
00000040: 044f 66be eebc 73be 4076 e3bc 00cb 3fc0
00000050: af92 1bbe cb97 31c0 fa53 09c0 fc43 883d
00000060: a696 723e d444 6ebe 0d8f 1b3f 3c31 aebd
00000070: cd8c fabd c07d 96bb b2f3 e3bd b8df bf3d
00000080: 9941 07bf af9c bfbf 7c17 4e40 fe7b 73bf
00000090: 1884 4d3e 20df 433d b9bb 0fbe 04c4 38be
000000a0: 6c7a 2d3f 9395 0ebe e09e 313c 326a ba3d
000000b0: 2cd3 303f 486f 6cbe de61 16bf cd39 95bd
000000c0: b64f 5d3f 314a 2d3e 2423 c63d 5018 43bf
000000d0: 3c26 bb3d 19d1 16c0 606c 8b3d 6aff 5bc0
000000e0: 5e91 aebd c6f6 7b3e 30d1 72bf c00a 823e
000000f0: d85d 4d3e 7832 94bd 7657 313e 58b2 603e
00000100: 006e 04ba 7421 2bc1 c6b3 583f d505 153e
00000110: f1b7 6f3f afc3 08be edd8 6ac0 248c 123e
00000120: 0a35 48be 08d9 33bd ae71 89bd be74 76c0
00000130: 8c32 a7bd 86c3 0ec0 5e2b 503e a459 d4bd
00000140: 8091 abbb f4fc 1b3e 64fa b0bd 1b3e 99bd
00000150: 04da 79be c536 83be d766 b53e 3618 06be
00000160: 06e6 debd c6c0 1b3e 88e4 863d 34cd fa3d
00000170: 6cfa 1fbc 7e02 45be 1f1c 253f 5569 8a3e
00000180: a6bd 25c0 98f5 17be 5f6d 39c1 40dd 843f
00000190: 17a9 78be 8a6b bfbd 3894 303e 09cd 923f
000001a0: fcde b93f e0f2 cc3d 8551 7ebe 7b16 98bf
000001b0: c61b 6fc0 8e67 56be 15c5 d5be c331 72be
000001c0: 3615 79c0 44d8 83bf 2c82 5dbd a45d f8bf
000001d0: 7b95 5d3f 457c 173f 689c 24be 5d2d b23e
000001e0: ae34 443e b46a e33d 5b62 d63f fc9d b1bc
000001f0: 0294 a63f e093 df3c b5ae 853e 0794 07be
00000200: 7ca2 a8bd 0473 52c0 325c a83e 068b 94bd
00000210: f82e dcc0 505a 21bd ad6c 7fbf 8d47 0b3e
00000220: c96a 89be 0022 33bc 7d9a 893e 4391 02be
00000230: d44f d2bd 2d24 b0bf 40d9 683c c194 243d
00000240: 24ca 43bd 183d 0cbe 0a8a 5d3e c924 8b3f
00000250: 3899 d0bc 05d8 0fbf e958 ea3e 5a21 c6bd
00000260: f701 483e 2411 ffbd 3091 b2c0 40dd d83d
00000270: 435f 853e 55e6 833e 3136 b5bf 58b7 a0bd
00000280: 772f 85c0 9db3 3240 37fa 683c b638 fa3f
00000290: a4ea 42be 9a40 efbd f298 6d3e 9731 333f
000002a0: 36a5 69bd 691d 74be a498 853d 1b69 9a3f
000002b0: e017 893f 4659 b6bd c87a 933f 90b9 b2bd
000002c0: a59d a63e a3a3 27c0 d61a 1abe 328b f3bf
000002d0: 75d7 b33f 8eeb 35c0 f1ac 7abe c4a7 8f3e
000002e0: 4685 04be 9ceb 2d3e 76a9 e4be ba1a 95bd
000002f0: 13b2 a4c0 201f 09be 0108 80be e551 e03d
00000300: d432 fe3d fad0 1a40 fe05 253f 20e3 92bd
00000310: 2cee 283f 14d3 203e c8e2 fbbf 3dbb 1fbe
00000320: dca6 2dbe ec21 fe3d 1618 723e b3ed 763f
00000330: 14a9 453e 2533 3bc0 28b4 3a3d 0674 91be
00000340: 6c65 bfbd 4cb2 56be d636 743e a6f0 6f3e
00000350: 9f18 23be 6407 f23d 42cd aa3f 32a9 683e
00000360: e68b 6fbd a340 14be 8772 aa3f c225 76be
00000370: 94eb 57be a83f 553e b92e 14bf e237 85bd
00000380: bd84 02bf fda3 bdc0 3b6b b8bf a804 5abf
00000390: d18f 8abe 4870 193d 3cd8 8abd 7997 3f3f
000003a0: 0438 4c3f 7e11 34be 4c3f db3d 2dd4 d8bf
000003b0: d75c 0dc0 a5f7 5fbe 6461 31c0 8d48 e9bd
000003c0: 2d1f e0bf 6ee5 15c1 10b5 963d 1193 8440
000003d0: 6a76 423f b049 3cbe d080 3a3d 5c74 bdbf
000003e0: ee97 f4bd f8a1 e83d c3c0 8e3f 7a19 d9bd
000003f0: 8017 9c3f 6075 e9bc e434 ca3d 9028 50bd
-0.17466828 0.12651597 1.0581186 -0.16386552 1.3504276 0.09814486 2.2323468 -0.27236614
-0.059168987 0.03450319 -0.0044371486 -0.75591993 -0.10806312 1.4413813 0.008192599 0.16797568
-0.2249108 -0.2380254 -0.027766347 -2.9967651 -0.15192674 -2.7748897 -2.1457505 0.06653592
0.2369028 -0.23268443 0.60765153 -0.085054845 -0.12233887 -0.0045926273 -0.111304656 0.09368843
-0.5283447 -1.4969691 3.2201834 -0.9511107 0.20069921 0.04782021 -0.14036454 -0.18043524
0.67764926 -0.13924246 0.010841101 0.091022864 0.6907222 -0.23089325 -0.58743083 -0.07286415
0.86449754 0.16922833 0.09674671 -0.7620897 0.09138152 -2.3565123 0.0680778 -3.4374642
-0.0852382 0.24605855 -0.94850445 0.25398827 0.2005533 -0.07236189 0.1731852 0.21943033
-0.00050517917 -10.695667 0.8464931 0.14553006 0.9364005 -0.13355897 -3.66949 0.14311272
-0.19551483 -0.04390815 -0.06711136 -3.8508754 -0.08163938 -2.2306838 0.20329043 -0.1036866
-0.005235851 0.15233213 -0.08641508 -0.07482549 -0.24399573 -0.25627723 0.35430023 -0.13095173
-0.10883717 0.15210256 0.065865576 0.12246171 -0.009764295 -0.19239232 0.64496034 0.27033487
-2.5897002 -0.1483978 -11.589202 1.038002 -0.24283253 -0.09346683 0.17244041 1.1468822
1.4521174 0.10007262 -0.24835785 -1.188186 -3.7360702 -0.2093794 -0.41751924 -0.23651795
-3.8919196 -1.0300374 -0.05407922 -1.9403577 0.86556214 0.59173995 -0.16075289 0.34800234
0.1916072 0.111043364 1.6748766 -0.021681778 1.3013918 0.027292192 0.26109853 -0.13240062
-0.082341164 -3.28827 0.3288284 -0.07253079 -6.8807335 -0.03939277 -0.997752 0.13601513
-0.26839283 -0.010933399 0.26875678 -0.12750725 -0.10269132 -1.376104 0.014211953 0.040180925
-0.0478002 -0.1369518 0.21634689 1.0870601 -0.025463685 -0.56188995 0.45770958 -0.0967433
0.19532 -0.12454441 -5.580223 0.10589075 0.2604924 0.25761667 -1.4157163 -0.0784747
-4.162044 2.7922127 0.014219812 1.9548557 -0.19034821 -0.11682244 0.23202875 0.69997543
-0.057042323 -0.23839344 0.065232545 1.2063326 1.0710411 -0.08903746 1.1521845 -0.087267995
0.32542148 -2.6193626 -0.150493 -1.9026854 1.4050127 -2.842502 -0.24480034 0.28057683
-0.12941465 0.16984409 -0.44660538 -0.07280488 -5.1467376 -0.1339078 -0.25006106 0.1095312
0.124120384 2.419005 0.6446227 -0.07172227 0.6598842 0.1570552 -1.9678583 -0.1559877
-0.16958183 0.12408814 0.23642 0.9645645 0.1930278 -2.9249966 0.045581967 -0.2840883
-0.093455166 -0.20966452 0.23849043 0.23431644 -0.15927361 0.11817816 1.334389 0.22720793
-0.058483027 -0.14477782 1.3316201 -0.24037841 -0.2108596 0.20825064 -0.57883793 -0.065047994
-0.5098379 -5.926268 -1.4407724 -0.85163355 -0.27062848 0.037460595 -0.06779525 0.74840504
0.79772973 -0.17584798 0.10705432 -1.6939751 -2.2087915 -0.21871813 -2.7715693 -0.11390791
-1.7509514 -9.368513 0.07358754 4.1429524 0.75961936 -0.18387485 0.045533 -1.4801135
-0.11943041 0.11359018 1.1152576 -0.106005624 1.2194672 -0.028498352 0.09873369 -0.050819933
