Stable/Flask/Linux/static/model/modelLeft.tflite (tflite, 15548 bytes, 4 tensors)

sequential_2/dense_4/BiasAdd/ReadVariableOp/resource f4 [64]
0	0x3f375ad4	0.7162297
1	0x00000000	0.0
2	0xbf45cb0c	-0.7726295
3	0x3f442f7d	0.7663496
4	0x00000000	0.0
5	0x00000000	0.0
6	0xbf4d3c34	-0.8016999
7	0x3e7cc2c7	0.24683677
8	0x3f56bc56	0.8388113
9	0xbdaeb2cc	-0.085301965
10	0xbe6cd83f	-0.23129366
11	0x3e9f175f	0.31072518
12	0x00000000	0.0
13	0xbc993e43	-0.018706447
14	0xbee5c565	-0.44877163
15	0xbdfd7aeb	-0.1237696
16	0x00000000	0.0
17	0xbf793dcf	-0.9735994
18	0xbbc4c368	-0.0060047396
19	0x3e84c7ba	0.2593363
20	0x3dd30a33	0.1030468
21	0xbe9154e9	-0.28385094
22	0x3fa97612	1.3239157
23	0xbcc44b16	-0.023961585
24	0xbdd87cbe	-0.10570668
25	0xbcc737d0	-0.024318606
26	0xbbe058a1	-0.006846503
27	0x3fda31fa	1.7046502
28	0x00000000	0.0
29	0xbeff5670	-0.49870634
30	0x3ed57018	0.41687083
31	0xbfbc1d3e	-1.4696424
32	0x00000000	0.0
33	0x00000000	0.0
34	0x00000000	0.0
35	0xbe7c8b88	-0.24662602
36	0x00000000	0.0
37	0xbbc4c66a	-0.006005098
38	0xbf285609	-0.6575628
39	0x00000000	0.0
40	0xbd22ba28	-0.039728314
41	0x3f190327	0.59770435
42	0xbc5b80cd	-0.013397408
43	0x00000000	0.0
44	0xbfffa1d8	-1.9971266
45	0xbc294fc6	-0.010333961
46	0xbba98bdb	-0.005174143
47	0xbc258eff	-0.010104894
48	0x3db1fae1	0.086904295
49	0xbc232f38	-0.009959988
50	0x3f3fdee3	0.74949473
51	0x3f224882	0.6339189
52	0xbe4a1938	-0.19736183
53	0x3f1a4040	0.6025429
54	0x00000000	0.0
55	0x3ecde820	0.4021616
56	0x3f1af17b	0.6052472
57	0xbc9a5c99	-0.018842982
58	0x00000000	0.0
59	0x00000000	0.0
60	0xbe5f6de8	-0.2181927
61	0xbf88f945	-1.0701071
62	0x00000000	0.0
63	0x00000000	0.0

sequential_2/dense_5/BiasAdd/ReadVariableOp/resource f4 [14]
0	0x3e8e1813	0.27752742
1	0x3f046dd2	0.5173007
2	0x3dd6f7eb	0.10496505
3	0xbdced1ed	-0.10098634
4	0xbd55b711	-0.05217654
5	0xbf198c15	-0.59979373
6	0xbf84937e	-1.0357511
7	0xbeec0e20	-0.46104527
8	0xbe0a0fdf	-0.13482617
9	0x3f0d83f2	0.5527946
10	0xbed5421e	-0.41652006
11	0x3ef074f1	0.4696422
12	0xbee8a9b1	-0.45441964
13	0xbc456469	-0.012047865

sequential_2/dense_4/MatMul f4 [64, 40]
0	0x3fbf9931	1.4968625
1	0x3fa51bc7	1.2899102
2	0x3fafb725	1.3727766
3	0x3f5fbef6	0.8740076
4	0x3ef77d23	0.4833766
5	0xbcf641a7	-0.030060602
6	0xbf4a286a	-0.78967917
7	0xbf85e692	-1.046099
8	0xbd07e704	-0.033179298
9	0x3e4be57c	0.1991176
10	0xbebd9fca	-0.37035972
11	0xbf63cb28	-0.88981867
12	0xbf01f56d	-0.50765115
13	0x3e68de3f	0.2274103
14	0x3db72d80	0.08944225
15	0xbf120aa1	-0.5704747
16	0xbe89eb74	-0.2693745
17	0xbdd31dcb	-0.10308417
18	0x3c3611f0	0.011112675
19	0xbf314ca4	-0.6925757
20	0x3ec16cd7	0.3777835
21	0x3ccea1fd	0.025223726
22	0xbda2a031	-0.0794071
23	0x3f41351c	0.75471663
24	0x3f0b775b	0.54478997
25	0xbe9030d5	-0.28162256
26	0xbe0d9ad8	-0.138286
27	0x3e5c68a2	0.21524289
28	0x3f563feb	0.8369128
29	0x3e880a20	0.26570225
30	0xbfb21be4	-1.3914762
31	0xbfb5f791	-1.4216176
32	0x3f846c6f	1.0345591
33	0xbd82538a	-0.0636359
34	0xbf57d9d2	-0.8431674
35	0xbf38304e	-0.7194871
36	0x3e887fed	0.266601
37	0xbe5be371	-0.21473481
38	0xbf1de45f	-0.6167659
39	0xbf13fd92	-0.5780879
40	0x3dad822c	0.08472094
41	0x3e72c0e4	0.23706394
42	0xbd4f16d0	-0.050558865
43	0xbd01b008	-0.031662017
44	0xbde3f994	-0.111315876
45	0xbc8b5580	-0.017008543
46	0xbe2af6c4	-0.16695696
47	0x3d9cc458	0.07654637
48	0x3c733fc0	0.014846742
49	0xbe518bb5	-0.2046345
50	0xbe6a6542	-0.2289019
51	0xbde0c90c	-0.10975847
52	0xbd232434	-0.039829448
53	0xbe0c8ee2	-0.1372638
54	0xbc3bbe40	-0.011458933
55	0xbe2e44b8	-0.17018402
56	0xbe3f8902	-0.18704608
57	0x3d984fd8	0.07437104
58	0x3e355858	0.17709482
59	0xbda14084	-0.078736335
60	0x3d836bd0	0.06417048
61	0x3d1121c8	0.035432607
62	0x3db3f7d8	0.08787507
63	0xbe140817	-0.14456211
64	0xbe48e060	-0.19616842
65	0x3dd0c4e8	0.10193807
66	0xbbca49e0	-0.0061733574
67	0x3dbd2d20	0.092371225
68	0x3d21f2b0	0.039538085
69	0x3ccc2ff0	0.024925202
70	0x3dc04090	0.09387314
71	0x3c890940	0.016728044
72	0x3d9396b0	0.07206476
73	0xbe691792	-0.22762898
74	0xbdd77ccc	-0.1052185
75	0xbe274598	-0.16335142
76	0xbe488a58	-0.19584024
77	0x3e6e7a7c	0.23288912
78	0x3e2a23d0	0.16615224
79	0xbe1bcac8	-0.15214074
80	0x3eda4985	0.42634216
81	0xbec653a8	-0.387357
82	0xbf53e49e	-0.8277072
83	0xbf3e880a	-0.7442633
84	0x3f201abd	0.625408
85	0x3ebe3868	0.3715241
86	0x3f275229	0.6535974
87	0x3f31b303	0.69413775
88	0x3f54d578	0.8313823
89	0xbdcf4d7a	-0.10122199
90	0xbe849360	-0.25893688
91	0x3ecfaafd	0.4056014
92	0x3ee9fb21	0.4569941
93	0xbf08ea57	-0.53482574
94	0xbecb1359	-0.396632
95	0x3db665de	0.089061484
96	0x3ee47c0b	0.44625887
97	0xbd27015f	-0.040772792
98	0xbe8ce3c5	-0.27517524
99	0xbd89022d	-0.06689868
100	0xbfe76fcd	-1.8080994
101	0xbef3e999	-0.47639158
102	0x3f916b22	1.1360819
103	0xbf100d6e	-0.5627049
104	0xbf45ab0f	-0.7721414
105	0xbc089c8a	-0.008338103
106	0x3e68a1a0	0.22717905
107	0xbdfe586d	-0.1241921
108	0xbefbeb92	-0.49203163
109	0xbeb8ec9a	-0.36118013
110	0xbdfe935a	-0.12430449
111	0xbdeff13d	-0.117159344
112	0x3e43a016	0.19104037
113	0x3e96c499	0.29446867
114	0x3daff3e3	0.085914396
115	0xbf161926	-0.58632123
116	0x3f303e67	0.6884522
117	0x3f936d3b	1.151771
118	0x3f8a1e97	1.0790585
119	0x3fb8252a	1.4386342
120	0xbe8cf892	-0.27533394
121	0x3ef241e1	0.47315887
122	0x3f07d215	0.53054935
123	0x3e4bf97b	0.19919388
124	0x3f0f5694	0.5599148
125	0xbeb7efd7	-0.3592517
126	0xbe9758a4	-0.29559815
127	0x3e7b38f7	0.24533449
128	0x3e475ee6	0.19469795
129	0x3ecc80d0	0.39942026
130	0x3f7a37d9	0.97741467
131	0x3fe323a2	1.7745249
132	0xbea26784	-0.317196
133	0xbe7da3e2	-0.24769548
134	0xbe433753	-0.19064073
135	0x3d9706d1	0.07374347
136	0xbf4c8be0	-0.7990093
137	0xbf88f6d2	-1.0700324
138	0xbf60c3f3	-0.87798995
139	0xbf24d831	-0.6439238
140	0x3faf2f65	1.3686339
141	0x3d511096	0.05104121
142	0xbf67bf66	-0.90526426
143	0x3e531c2f	0.2061622
144	0x3d3eaf92	0.046554156
145	0xbfc06173	-1.5029739
146	0xbf3bb5b4	-0.7332413
147	0x3f7fabf0	0.9987173
148	0x3ca42596	0.020037454
149	0xbfa4c6e6	-1.2873199
150	0xbf0066b7	-0.5015673
151	0x3f93b240	1.1538773
152	0x3ead897b	0.33893952
153	0xbfad20ec	-1.3525672
154	0x3dae2d49	0.08504731
155	0x3ffa6ea9	1.9565021
156	0x3df5c49a	0.120003894
157	0xbf50a458	-0.8150077
158	0xbe7be9b2	-0.24600866
159	0x3f291548	0.660481
160	0xbd7476b0	-0.0596835
161	0xbde175a0	-0.11008763
162	0xbe4542ea	-0.19263807
163	0x3e01a854	0.12661868
164	0xbc8ea5a0	-0.01741296
165	0x3d6c1460	0.05763662
166	0x3e0d3852	0.13791016
167	0x3e321df2	0.17394236
168	0x3dd499bc	0.10380885
169	0xbd8acc92	-0.067773
170	0xbe085c9c	-0.13316578
171	0x3e53cc46	0.20683393
172	0xbde5a91e	-0.11213897
173	0x3e004e14	0.12529784
174	0x3de336f8	0.11094469
175	0x3d2c3640	0.042043924
176	0xbe2de097	-0.16980205
177	0xbe345512	-0.17610577
178	0x3de8826c	0.11353001
179	0xbe46ca53	-0.19413118
180	0x3e4bdaea	0.19907728
181	0xbdc14f32	-0.094389334
182	0xbcb77170	-0.022392958
183	0x3e25216a	0.16126028
184	0xbe48b99e	-0.19602057
185	0xbd552c48	-0.052044183
186	0xbe14a12e	-0.1451461
187	0x3dc98614	0.098400265
188	0xbe16f78c	-0.14742869
189	0xbd323058	-0.043503135
190	0x3e43baca	0.19114223
191	0xbdc6181e	-0.09672569
192	0xbd0a39a8	-0.03374639
193	0x3de57318	0.11203593
194	0xbe3ec471	-0.18629624
195	0xbe13e297	-0.14441906
196	0x3d5aa988	0.053384334
197	0xbab8fa80	-0.0014112741
198	0x3bac02e0	0.005249366
199	0x39736000	0.00023210049
200	0x3e5149de	0.20438334
201	0xbe5b4df6	-0.21416458
202	0xbdd448d0	-0.103654504
203	0xbddf8794	-0.10914531
204	0xbc6a6270	-0.014305696
205	0xbd80066a	-0.062512234
206	0x3e221512	0.1582835
207	0x3cdc92b0	0.026925415
208	0x3d751668	0.05983582
209	0xbcb8a2d8	-0.022538587
210	0xbd699c90	-0.057034075
211	0x3e18dbb2	0.14927557
212	0x3dc9c9d0	0.09852946
213	0x3d42bc30	0.04754275
214	0xbdeaff16	-0.11474435
215	0xbd9e6762	-0.077345625
216	0x3e018942	0.12650016
217	0xbdbfe0c0	-0.093690395
218	0xbc303bd0	-0.010756448
219	0xbe3f2688	-0.18667042
220	0x3e1b6bd0	0.15177846
221	0x3b7c7dc0	0.0038527101
222	0x3b98c0c0	0.0046616495
223	0x3d93dfdc	0.07220432
224	0x3dc0ad50	0.09408057
225	0xbde246ec	-0.110486835
226	0xbe62e00b	-0.22155778
227	0xbdef7259	-0.11691732
228	0x3db7e384	0.08978942
229	0xbdd244a4	-0.102669984
230	0xbdd62fa0	-0.104583025
231	0x3dfce400	0.12348175
232	0xbcc579f8	-0.02410601
233	0xbe533a50	-0.20627713
234	0x3e6b9dd6	0.23009428
235	0xbe2cdd68	-0.16881335
236	0xbd0d1790	-0.0344463
237	0xbddaadc2	-0.10677673
238	0xbe193900	-0.1496315
239	0xbe19347e	-0.1496143
240	0x3f68091d	0.90638906
241	0x3ec1b480	0.37833023
242	0x3ea02461	0.31277755
243	0x3eae74c5	0.34073463
244	0x3f17597f	0.59120935
245	0xbe3b65fd	-0.18300624
246	0xbf11c5f3	-0.5694267
247	0x3e001987	0.12509738
248	0x3f6f444c	0.9346359
249	0x3ed83864	0.42230523
250	0xbf74212b	-0.9536311
251	0xbfccbd75	-1.5995318
252	0x3f9185e4	1.1368985
253	0x3f3c772c	0.7361934
254	0xbf863644	-1.048531
255	0xbff04af4	-1.8772874

sequential_2/dense_5/MatMul f4 [14, 64]
0	0x3fac8cb8	1.3480444
1	0x3e85c429	0.2612622
2	0x3e2b15ec	0.16707581
3	0xc0197582	-2.397797
4	0x3e0866ee	0.13320515
5	0xbe248624	-0.16066796
6	0x3eb8fdf1	0.36131242
7	0x4004fed7	2.0780542
8	0x3f5e1320	0.8674793
9	0xbeb7dc26	-0.35910147
10	0x3fa3cf37	1.2797612
11	0xbcfad9f8	-0.030621514
12	0xbe7ddec1	-0.24792005
13	0xbe3e9690	-0.18612123
14	0x3fb40b35	1.406592
15	0x3fe328e6	1.7746856
16	0xbe894ca6	-0.2681629
17	0xc00481ae	-2.070415
18	0xbe669fcb	-0.22521894
19	0xbeb2d0e5	-0.34925
20	0x3d6d57a8	0.057944924
21	0x404f61ad	3.2403367
22	0xbe9c7afb	-0.30562577
23	0xbdf4b03b	-0.11947676
24	0x3f0c5a2a	0.5482508
25	0xbe7780e1	-0.24170257
26	0xbacc49f9	-0.001558601
27	0x3fa1fe5e	1.2655752
28	0xbe26ce1a	-0.16289559
29	0xbff2c9c0	-1.8967819
30	0xbe4ad41a	-0.19807473
31	0xbfc95b18	-1.5730925
32	0xbe559436	-0.20857319
33	0xbda2b7aa	-0.079451874
34	0x3dcfd2c0	0.10147619
35	0xbf55b2a1	-0.8347569
36	0xbe7f306e	-0.24920818
37	0xbe86ea91	-0.26350835
38	0x3f18adb0	0.59640026
39	0xbe57a3f4	-0.21058637
40	0x3dbd0261	0.09228969
41	0xc0b08dea	-5.5173235
42	0xbecc33f6	-0.39883393
43	0x3cfb7350	0.030694634
44	0x3fa1cd5a	1.2640793
45	0xbd10f198	-0.03538665
46	0xbe0768a1	-0.13223507
47	0x3e4c1f58	0.19933832
48	0xc06242dc	-3.5353308
49	0xbe703f44	-0.23461634
50	0xbe275ead	-0.1634471
51	0xc02a4a60	-2.6607895
52	0xc072c00f	-3.7929723
53	0xbf7cb3e9	-0.9871202
54	0x3df996ac	0.121869415
55	0xbed15350	-0.40883875
56	0x3f50e34c	0.8159683
57	0x3c48912e	0.012241645
58	0x3db46984	0.08809188
59	0x3e26ea80	0.16300392
60	0x3f7b38b3	0.9813339
61	0x3f3eff64	0.74608445
62	0xbe29018a	-0.16504493
63	0x3d208260	0.039186835
64	0xbe9d9503	-0.3077775
65	0xbdf6219c	-0.12018129
66	0x3d91ac52	0.071129456
67	0x3fd4e2c5	1.6631705
68	0x3ceb5f70	0.028732032
69	0x3e4335e4	0.19063526
70	0x402cf950	2.7027168
71	0x3e2d63de	0.16932628
72	0xc09dc11f	-4.9298244
73	0x3f38c0ab	0.7216899
74	0xc03035f7	-2.7532938
75	0x3f1f7f5a	0.623037
76	0x3d3b0fc0	0.045669317
77	0xbe2b1256	-0.16706213
78	0xbed5e81d	-0.4177865
79	0x3f54b8e7	0.8309464
80	0xbe024f95	-0.1272567
81	0xbe979750	-0.2960763
82	0xbe1f5358	-0.15559137
83	0xbed95867	-0.42450258
84	0xbd9fade8	-0.07796842
85	0x3f84e2dd	1.0381733
86	0x3f96f4d4	1.1793466
87	0xbe5e9927	-0.2173811
88	0xbf80b39d	-1.0054814
89	0x3d88f4f0	0.06687343
90	0x3cc65223	0.024209088
91	0x3f9a5347	1.2056664
92	0xbd4bf7bc	-0.049796805
93	0xbe5d8a94	-0.21634895
94	0x3eb6e2b1	0.35719827
95	0xc11b9714	-9.724384
96	0x3e560792	0.20901325
97	0xbe393f9c	-0.18090671
98	0x3e6cd006	0.2312623
99	0x3efb5109	0.49085262
100	0x3cc19550	0.023630768
101	0xbe10bb24	-0.14133888
102	0xc00970f7	-2.1475198
103	0xbce5e408	-0.028062835
104	0xbd9926d3	-0.07478108
105	0x4027b933	2.6206787
106	0x3ee73d0c	0.45163763
107	0x3e5c1ce4	0.21495396
108	0xc0a1b56c	-5.053396
109	0xbd99edb2	-0.0751604
110	0xbe4fe1a4	-0.20300919
111	0xbddc2ec9	-0.10751111
112	0x3f8e4fc8	1.1118097
113	0xbe2fb91c	-0.17160457
114	0xc0ab2de3	-5.3493514
115	0x3e9665b7	0.29374477
116	0x3e87888d	0.26471367
117	0x3f2cbf51	0.67479426
118	0xbdc51014	-0.09622207
119	0xbd022f84	-0.031783596
120	0xc09de30f	-4.933967
121	0x3dde6755	0.10859553
122	0xbdb00aa6	-0.08595781
123	0xbd632094	-0.05545099
124	0xbea91572	-0.33024174
125	0xbc9be9e7	-0.019032432
126	0x3d551fb0	0.052032173
127	0xbd0045c4	-0.031316534
128	0xbf810a77	-1.0081319
129	0x3e8674c7	0.2626097
130	0x3efb6c81	0.4910622
131	0xbed51447	-0.41617033
132	0xbe6a4fb8	-0.22881973
133	0xbd3bec1c	-0.04587947
134	0xbc70fe0c	-0.014709007
135	0x3fb1fe7d	1.3905789
136	0xbf9ad324	-1.2095685
137	0xc0d82ab9	-6.755215
138	0xc005b77a	-2.0893235
139	0xbf3a2bfd	-0.7272337
140	0x3e031c1c	0.12803692
141	0x3e3aec34	0.18254167
142	0x3f5a1d88	0.8520131
143	0x3f53848a	0.82624114
144	0x3e3a3f60	0.18188238
145	0x3fbcc638	1.4747992
146	0xbe112c67	-0.14177094
147	0xbeb4d673	-0.35319862
148	0x3e567f2d	0.20946951
149	0x3f34af03	0.70579547
150	0x3f2b03bd	0.6680258
151	0x3e824bbb	0.25448403
152	0x3fc55c1c	1.5418735
153	0x3e4aadaf	0.19792818
154	0xbe7228bb	-0.2364835
155	0x3f5ba54d	0.85799104
156	0x3d349f20	0.044097066
157	0x40276f5a	2.6161714
158	0xbfc66b7c	-1.5501552
159	0xc08bd66a	-4.3699236
160	0x3d640400	0.055667877
161	0x3e597fd2	0.21240166
162	0x3e86c371	0.26320985
163	0xbf0509fb	-0.51968354
164	0x3c48cc60	0.012255758
165	0x3df9c404	0.1219559
166	0xbf964a6a	-1.1741459
167	0xbe51d9d4	-0.20493251
168	0xbd30b873	-0.043144654
169	0x3fc426fa	1.5324395
170	0x3ea1db60	0.31612682
171	0x3d9c37cc	0.0762783
172	0xc11669f0	-9.400864
173	0x3e571cc6	0.2100707
174	0x3e3f7f0e	0.18700811
175	0x3d905220	0.07046914
176	0x40329219	2.790167
177	0xbc0b9a2d	-0.008520645
178	0x3e07e5d6	0.13271269
179	0xbf497a77	-0.7870249
180	0xbfcaebdf	-1.5853232
181	0x3e52de89	0.20592703
182	0x3e857dbb	0.26072487
183	0x3fb4e18a	1.4131329
184	0xbf9f0ae0	-1.2425194
185	0xbdd01e20	-0.10161996
186	0x3e32e3f2	0.17469767
187	0xbe80ddde	-0.2516927
188	0x3fabef8f	1.3432482
189	0xc0808526	-4.0162535
190	0xbdccd532	-0.10001601
191	0x3d940fd8	0.072295845
192	0xc0b0c92e	-5.524558
193	0x3e4e9e10	0.20177484
194	0xbe863f1e	-0.2622003
195	0x3f13e593	0.5777218
196	0xbcaa5c10	-0.020795852
197	0xbe2980ac	-0.1655299
198	0x3f438bfc	0.76385474
199	0xbea9c119	-0.33155134
200	0xc031e515	-2.779607
201	0xbfaa1704	-1.3288274
202	0xc10647fa	-8.392572
203	0x4051d93e	3.2788844
204	0x3e26e79a	0.16299286
205	0x3dd5c00f	0.10437023
206	0xbfbea28c	-1.4893355
207	0x3de550ee	0.11197077
208	0xbe5c10f7	-0.21490847
209	0xbc47a6b9	-0.012185746
210	0x3dcfceb0	0.101468444
211	0x3fb80b58	1.4378462
212	0xbfb7c2e6	-1.4356353
213	0xbfdba2b5	-1.7159029
214	0xbea00bf5	-0.31259122
215	0xbe71b2f0	-0.23603415
216	0x3edb4db3	0.42832717
217	0x3e81e708	0.25371575
218	0x3e70a72e	0.23501274
219	0xbfb848a2	-1.4397166
220	0xbe82c7ab	-0.2554296
221	0xc0d5a564	-6.6764393
222	0x40169865	2.3530514
223	0x3ffbcaca	1.9671261
224	0x3de2812c	0.11059794
225	0xbe7833a0	-0.24238443
226	0x3e43a972	0.19107607
227	0x3f908a9e	1.1292303
228	0xba12dc00	-0.00056022406
229	0xbe1b4d8d	-0.15166302
230	0xbfbe26bc	-1.4855571
231	0xbde5e534	-0.11225358
232	0x3deb919e	0.11502384
233	0x4033b87d	2.8081353
234	0x3f4ecf79	0.8078533
235	0xbe05f027	-0.13079892
236	0xbfe4eda6	-1.7885025
237	0x3e1da1c7	0.15393744
238	0xbe91bfdc	-0.2846669
239	0xbe9757f6	-0.29559296
240	0x40044e19	2.0672667
241	0x3e8231db	0.25428662
242	0x3e990893	0.29889354
243	0xbefe6817	-0.4968879
244	0x3f569792	0.8382503
245	0x3f660910	0.8985758
246	0x3dcfa570	0.101389766
247	0xc05dbee2	-3.4647756
248	0xbf312410	-0.6919565
249	0xbde1d971	-0.11027802
250	0xbe803579	-0.25040796
251	0x3e0b30ea	0.13592878
252	0xbf0e950c	-0.5569618
253	0xc0659ac1	-3.5875704
254	0x3d205ee0	0.03915298
255	0xbe7c03ea	-0.24610868
