Flask/Linux/static/model/modelRight.tflite (tflite, 18928 bytes, 4 tensors)

sequential_1/dense_2/BiasAdd/ReadVariableOp/resource f4 [64]
0	0xbd8dc38c	-0.06922063
1	0xbf87595b	-1.0574144
2	0xbc18f5f0	-0.00933598
3	0x00000000	0.0
4	0xbfa58da8	-1.2933855
5	0x3f0d3cea	0.5517107
6	0x3e8196bd	0.25310317
7	0xbf8ade74	-1.0849137
8	0xbd0fdbfb	-0.0351219
9	0x00000000	0.0
10	0x3ece6ad3	0.40315875
11	0x00000000	0.0
12	0xbf4f3a1c	-0.8094804
13	0xbcfac934	-0.03061352
14	0xbf8bf091	-1.093279
15	0x00000000	0.0
16	0x00000000	0.0
17	0xbfa2e8e1	-1.2727319
18	0x3fc2d2c3	1.5220569
19	0x3dc2529e	0.09488414
20	0xbd296c36	-0.041362964
21	0x00000000	0.0
22	0x00000000	0.0
23	0x00000000	0.0
24	0xbf11d66e	-0.5696782
25	0xbfa26008	-1.2685556
26	0x3e630cc0	0.22172832
27	0xc007aff9	-2.1201155
28	0x00000000	0.0
29	0x00000000	0.0
30	0x3ed7712a	0.42078525
31	0xbecb4335	-0.39699712
32	0x3e97b563	0.29630575
33	0xbc61527c	-0.013752576
34	0x3f00bb87	0.50286144
35	0x3f89ea74	1.0774674
36	0x00000000	0.0
37	0xbd04c7ef	-0.032417234
38	0x3f266a3e	0.6500586
39	0xbee88087	-0.4541056
40	0xbe752ff6	-0.23944077
41	0xbcae8781	-0.021304848
42	0xbd9d1ff5	-0.07672111
43	0x3d54ec08	0.05198291
44	0xbd805b8e	-0.06267463
45	0xbba9f9bb	-0.005187241
46	0x00000000	0.0
47	0xbf635465	-0.8880065
48	0x3f8cf30e	1.1011674
49	0xbe5ec423	-0.21754508
50	0xbc8c623c	-0.017136686
51	0xbe4c3354	-0.19941455
52	0x3fd7080d	1.6799332
53	0x3f66f172	0.90212166
54	0x3f73e9f1	0.9527884
55	0x00000000	0.0
56	0xbefbfb7a	-0.492153
57	0x00000000	0.0
58	0x3f63a05b	0.8891656
59	0x3f605f0a	0.8764502
60	0x3e5f9bcb	0.21836774
61	0xbff326f1	-1.8996259
62	0x3eb6084e	0.3555321
63	0xbcaa8a93	-0.02081803

sequential_1/dense_3/BiasAdd/ReadVariableOp/resource f4 [27]
0	0xbec3beb6	-0.38231438
1	0x3f00d770	0.5032873
2	0x3f554a74	0.8331673
3	0x3f328fc1	0.697506
4	0xbff39c95	-1.903216
5	0xbf9ed2d7	-1.2408093
6	0xbf9c15b1	-1.219412
7	0x3f5414ff	0.8284454
8	0xbf3470e8	-0.7048478
9	0xc03c29ab	-2.9400432
10	0xbf78c0f3	-0.9716942
11	0xbe592af1	-0.21207787
12	0x3ec9a193	0.39381084
13	0x3ec46dc9	0.3836501
14	0xbf65ba07	-0.8973698
15	0x3f372809	0.71545464
16	0x3f15c842	0.58508694
17	0xbf3e3e6b	-0.7431399
18	0x3d457e91	0.048216406
19	0x3dc083de	0.09400152
20	0x3f0b2e04	0.5436709
21	0xbe7e1c75	-0.24815543
22	0xbeea4285	-0.45753875
23	0x3e6afd7e	0.22948262
24	0xbf4c9f13	-0.7993023
25	0xbf99bcd7	-1.2010754
26	0x3d66686d	0.056251932

sequential_1/dense_2/MatMul f4 [64, 40]
0	0xbfad2387	-1.3526467
1	0xbf02cccd	-0.5109375
2	0xbf91cdfb	-1.1390985
3	0xc0425d76	-3.0369544
4	0x3f914fe3	1.1352504
5	0x3f0b6a0d	0.54458696
6	0x3f31ead2	0.6949893
7	0x3f5a609a	0.8530365
8	0x3f845931	1.0339719
9	0x3fa201dc	1.2656817
10	0x3f6bbfa7	0.92089313
11	0x3f1a068e	0.6016625
12	0x3f087a92	0.5331203
13	0x3f64bea2	0.8935338
14	0x3f4153eb	0.75518674
15	0x3e788513	0.24269514
16	0x3f1aebc5	0.60516006
17	0x3f8a3a92	1.0799124
18	0x3ee0e03d	0.4392108
19	0xbeafbcda	-0.3432377
20	0xbf2aa0b6	-0.66651475
21	0xbf31d824	-0.6947043
22	0x3fa5ea1e	1.2962072
23	0xc0344530	-2.8167229
24	0xbea913f7	-0.33023044
25	0xbf828d9e	-1.0199468
26	0xbeb2f65b	-0.3495358
27	0x3ff76b21	1.9329568
28	0xbcdd8ca4	-0.027044602
29	0x3e835224	0.25648606
30	0xbf1fda4e	-0.6244248
31	0xbfd2c8cd	-1.646753
32	0xbe19c066	-0.150148
33	0x3ed7ee03	0.42173776
34	0xbe5fb1e1	-0.21845199
35	0xbf8cc1cf	-1.0996646
36	0x3d6294bb	0.05531762
37	0x3f87ebbb	1.0618814
38	0x3f12e207	0.5737614
39	0x3dc86e3b	0.0978665
40	0xbf28117b	-0.65651673
41	0xbda18d88	-0.07888323
42	0x3edd3e34	0.4321152
43	0x3e9c068b	0.30473742
44	0xbe7af9d8	-0.2450937
45	0xbf0440c3	-0.5166132
46	0xbdcae253	-0.09906449
47	0x3f6bb396	0.920709
48	0xbef5f73f	-0.48040196
49	0xbd818dc6	-0.06325869
50	0x3f8046de	1.0021627
51	0x3f963b55	1.1736857
52	0xbf53b199	-0.8269287
53	0x3e83b13a	0.2572115
54	0x3f31f436	0.6951326
55	0x3ee5be17	0.4487159
56	0xbf3d821c	-0.74026656
57	0x3e01ac44	0.1266337
58	0x3e960317	0.29299232
59	0x3e89b4fa	0.26895887
60	0xc0020f6d	-2.0321915
61	0xbf6d3065	-0.9265197
62	0x3f175236	0.5910982
63	0x3f1da8b3	0.6158554
64	0x3f65d90f	0.8978433
65	0x3fc6ea3c	1.5540233
66	0x3f42d5dc	0.76107574
67	0x3f039d95	0.51412326
68	0x3fb577b0	1.4177151
69	0x3f32bb53	0.69817084
70	0xbf68aece	-0.9089173
71	0xbff01801	-1.8757325
72	0x3fda9559	1.7076827
73	0x3f824f5e	1.0180471
74	0xbfa00367	-1.2501038
75	0xc00935a9	-2.1439002
76	0x3faf116e	1.3677194
77	0x3f7a5e90	0.9780054
78	0xbf40b28b	-0.75272435
79	0xbfb793e6	-1.434201
80	0x3e139f55	0.14416249
81	0xbe1b98a7	-0.15194951
82	0x3d79db65	0.061000247
83	0xbe7b10e2	-0.24518159
84	0x3de52f97	0.11190718
85	0x3e0c6660	0.13710928
86	0xbe4b2e88	-0.19841969
87	0x3e64800e	0.22314474
88	0x3c714d51	0.014727906
89	0xbd816096	-0.063172504
90	0xbd1282f8	-0.035769433
91	0xbe28dc57	-0.16490303
92	0x3e4aaebe	0.19793221
93	0x3e638945	0.22220333
94	0x3e093c15	0.13401826
95	0x3e3cd796	0.18441615
96	0x3ca17c69	0.019712644
97	0x3c636580	0.01387918
98	0xbe4fa92d	-0.20279379
99	0xbe6e5e99	-0.23278274
100	0xbe49cf51	-0.19707991
101	0x3e0c8033	0.13720779
102	0xbdb23043	-0.087006114
103	0xbd8ecae7	-0.06972294
104	0xbe450c35	-0.19242938
105	0x3caa7b21	0.020810666
106	0x3e14524d	0.1448452
107	0xbe5fd40e	-0.21858236
108	0xbd0d5bfc	-0.03451155
109	0x3d9bafb6	0.076018736
110	0xbdb7f3b1	-0.08982027
111	0xbe1f92c0	-0.15583324
112	0xbe41df7c	-0.18932909
113	0xbe382c2f	-0.17985605
114	0xbc9ec022	-0.019378725
115	0x3de7b24a	0.11313303
116	0x3d5f6c06	0.05454638
117	0x3d53f0f9	0.05174348
118	0x3da2429b	0.0792286
119	0x3d740779	0.05957744
120	0xbe68e419	-0.22743262
121	0xbdaec396	-0.08533399
122	0xbe5d1149	-0.21588625
123	0xbe0984e2	-0.13429597
124	0xbe430186	-0.1904355
125	0xbdc1aa96	-0.09456365
126	0xbe31a186	-0.17346773
127	0xbc20de60	-0.009818643
128	0x3e430316	0.19044146
129	0xbe4a5028	-0.1975714
130	0x3e120142	0.14258292
131	0xbd94a756	-0.07258479
132	0x3dfc3670	0.12315071
133	0x3e2b1ca8	0.1671015
134	0x3e3d3bca	0.18479839
135	0xbcd1abe0	-0.025594652
136	0x3dd33f8c	0.10314855
137	0xbc267ac0	-0.010161102
138	0xbdec29bd	-0.115313984
139	0x3e2810fe	0.16412732
140	0xbca6ced0	-0.020362288
141	0xbe025753	-0.12728624
142	0xbdcac1f6	-0.09900276
143	0x3d544bc0	0.051830053
144	0xbe496468	-0.19667208
145	0x3c9c3e00	0.019072533
146	0xbdc49852	-0.09599365
147	0x3dc54a74	0.096333414
148	0xbe2db3de	-0.16963145
149	0xbe32531e	-0.17414519
150	0xbe318772	-0.17336825
151	0xbcc291c0	-0.02375114
152	0xbe381a44	-0.1797877
153	0xbda23f46	-0.07922225
154	0x3e6e29fa	0.232582
155	0x3e084456	0.13307318
156	0xbdf94294	-0.12170902
157	0x3e40f6d6	0.1884416
158	0xbe633ba2	-0.22190717
159	0xbdc1256e	-0.09430967
160	0x3f89f5e8	1.077817
161	0x3fb2ca8f	1.3968066
162	0x3d417d42	0.047238596
163	0xc0199cf9	-2.4002059
164	0xbd8be44f	-0.06830656
165	0x3feb13bb	1.8365396
166	0x3fe02920	1.751255
167	0x3fb15b48	1.3855982
168	0xbf3d578e	-0.7396172
169	0xbe7b6ce5	-0.24553259
170	0x3e5a8e34	0.21343309
171	0xbd66066b	-0.056158464
172	0xbf858f1a	-1.0434296
173	0xbe38298a	-0.17984596
174	0x3f12bc58	0.5731864
175	0x3e2858ea	0.16440168
176	0xbfd443c3	-1.6583179
177	0xbe2d616e	-0.16931698
178	0xbdb8eb1f	-0.09029221
179	0xbf05678f	-0.5211114
180	0x3f7ebfc6	0.99511373
181	0x3f5fa50c	0.87361217
182	0xbf4ee293	-0.80814475
183	0xc00d9dcb	-2.212756
184	0x3f6677a4	0.9002631
185	0xbe0ee479	-0.13954343
186	0x3e229dff	0.15880583
187	0xbfe2babc	-1.7713237
188	0x3f56c5ba	0.83895457
189	0xc001f24e	-2.030414
190	0xbf33d164	-0.7024138
191	0xbaeb27b3	-0.0017940908
192	0x3f1044c3	0.5635492
193	0xbf743bc3	-0.9540369
194	0x3fa0fef5	1.2577807
195	0x4015168a	2.3295007
196	0x3f15fd55	0.5858968
197	0xbf176ff7	-0.5915522
198	0x3f3b2297	0.73099655
199	0x400be54b	2.18587
200	0x3f984572	1.1896193
201	0x3f1d2bea	0.6139513
202	0x3ee78a61	0.45222762
203	0x3f94991e	1.1609228
204	0x3e2f3ae6	0.17112312
205	0x3fe89a33	1.8172058
206	0x3e311695	0.1729377
207	0xbfd6e7ea	-1.6789525
208	0x3dcfdb94	0.10149303
209	0x3e962246	0.29323024
210	0xbed58abf	-0.41707417
211	0xbf93af8c	-1.1537948
212	0x3e6aa079	0.22912778
213	0x3c8087ed	0.015689814
214	0xbeb855bd	-0.36002913
215	0xbf91acdf	-1.1380881
216	0x3e6b63b9	0.2298726
217	0xbf4e18c2	-0.8050653
218	0xbfdd0048	-1.7265711
219	0xc0290631	-2.641003
220	0x3e530c3e	0.20610139
221	0xbf6b297e	-0.9186019
222	0xbfe52524	-1.790196
223	0x3f8911c4	1.0708547
224	0xbd9a4627	-0.07532912
225	0x3f9829c4	1.1887746
226	0x3fdaae92	1.7084525
227	0xbf83c1fe	-1.0293577
228	0x3f079299	0.52958065
229	0xbe9b7754	-0.30364478
230	0x3c1832e1	0.009289474
231	0x3edd4746	0.4321844
232	0x3f17ed46	0.59346426
233	0x3ebcf95a	0.3690899
234	0x3f9b6379	1.2139732
235	0x4007aa36	2.1197639
236	0x3eb8507e	0.3599891
237	0xbe76ca15	-0.24100526
238	0xbf045e9c	-0.5170686
239	0xbf4a82f7	-0.79106086
240	0xbec445d0	-0.38334513
241	0xbf49b6bc	-0.78794456
242	0xbf88d973	-1.069136
243	0xbf8caa34	-1.0989442
244	0x3f780445	0.96881515
245	0x3e90b883	0.2826577
246	0xbe8debb3	-0.27718887
247	0xbf7169c6	-0.9430202
248	0x3fa0a562	1.2550471
249	0x3f81a066	1.0127075
250	0xbe92e2bd	-0.28688613
251	0xbf90b82f	-1.1306208
252	0x3fa624f4	1.2980027
253	0x3fb8c3c8	1.4434748
254	0xbd418f0a	-0.047255553
255	0xbf0e03a5	-0.5547431

sequential_1/dense_3/MatMul f4 [27, 64]
0	0xbef26410	-0.47341967
1	0xc01c6600	-2.4437256
2	0x3e49a87c	0.19693178
3	0x3e5cffb4	0.21581918
4	0xbee7a03c	-0.45239437
5	0x3fee8dcf	1.8637027
6	0x3f7ea134	0.99464726
7	0xbd09c246	-0.03363254
8	0x3e328c83	0.17436413
9	0xbd94da3e	-0.07268189
10	0xbdc06ba5	-0.093955316
11	0x3e21624c	0.15760154
12	0x3f8838fd	1.0642391
13	0x3f5d5819	0.8646255
14	0xc03fb81f	-2.9956129
15	0xbdf33cfe	-0.11876868
16	0x3bbc7f80	0.005752504
17	0xbfd2013f	-1.640663
18	0xbf9c35f9	-1.2203971
19	0x3f7bd9d2	0.9837924
20	0xbe552c37	-0.20817648
21	0xbcaed060	-0.021339595
22	0xbcb8ca28	-0.022557333
23	0xbda9c2c8	-0.08289105
24	0xc0df85a9	-6.985066
25	0xbfc4de56	-1.5380352
26	0xc0f13038	-7.537136
27	0xbfa4f55c	-1.2887378
28	0x3d37e728	0.044898182
29	0xbe0fbacb	-0.140361
30	0xbbd82af6	-0.006596918
31	0xbfb04919	-1.3772308
32	0xbf8ee2b9	-1.116294
33	0x3d7adc25	0.061245102
34	0xbe35e431	-0.1776283
35	0x3ff51896	1.9148128
36	0xbdfee308	-0.124456465
37	0x3db6bfbd	0.0892329
38	0xbf2cfedd	-0.6757639
39	0x3f9fc4a1	1.2481881
40	0x3f0728c5	0.52796584
41	0xbdb85b23	-0.09001758
42	0x3fa0fe24	1.2577558
43	0x3f785cb4	0.97016454
44	0xc0bb49b5	-5.8527474
45	0xbd287cd9	-0.04113469
46	0xbda0e3ea	-0.07855971
47	0x3f341e4b	0.70358723
48	0xc048fd8f	-3.140476
49	0xbed95c13	-0.4245306
50	0x3d9aa7d2	0.075515404
51	0xbfbbec32	-1.4681456
52	0xc0405db7	-3.00572
53	0xc09364ea	-4.6060686
54	0x3f0c3767	0.5477204
55	0x3e7e8c4e	0.2485821
56	0x3ec06651	0.3757806
57	0x3c8748f0	0.016514271
58	0xbfc87954	-1.5662026
59	0xbd9af828	-0.07566863
60	0xbfd84687	-1.6896523
61	0x3e4a224d	0.19739647
62	0xbf1cc4c2	-0.6123773
63	0xbdcc098e	-0.0996276
64	0xbebbcffb	-0.36682114
65	0x3f95bde3	1.1698574
66	0xbda5cf78	-0.08096212
67	0x3e18e052	0.14929321
68	0xbfc8d82d	-1.5690972
69	0xc10f5bcf	-8.959914
70	0xc0783f05	-3.8788464
71	0xbfcd1d75	-1.6024615
72	0xbe6273fa	-0.22114554
73	0xbe4527a5	-0.19253404
74	0xc02358ed	-2.5523026
75	0xbe7f230c	-0.24915713
76	0xc030761f	-2.7572095
77	0x3ffb1672	1.9616225
78	0x405e4b2f	3.4733388
79	0x3e4818a4	0.1954065
80	0x3e0b0af0	0.13578391
81	0xbf6b7213	-0.9197094
82	0xbfae2355	-1.3604532
83	0x3dc76712	0.09736456
84	0xbd6e7214	-0.058214262
85	0x3e41cbc4	0.18925387
86	0x3db91674	0.09037486
87	0xbd69bbd0	-0.057063878
88	0xc0703c2d	-3.7536728
89	0xc06fdb97	-3.7477777
90	0x409b3b16	4.8509626
91	0x3f047ffe	0.517578
92	0xbe20cc3a	-0.15702906
93	0xbe64e6f4	-0.22353727
94	0x3f3b87f8	0.73254347
95	0x407345c9	3.8011343
96	0xc00311d3	-2.047963
97	0xbe10c4b6	-0.1413754
98	0xc0464296	-3.097814
99	0xbe68f7fc	-0.22750849
100	0xbd361810	-0.04445654
101	0xbe6bf1f3	-0.23041515
102	0xc05a155c	-3.4075537
103	0xc0df05a9	-6.969441
104	0x3e9264a2	0.28592402
105	0xbd4815de	-0.04884898
106	0x4007df67	2.1230104
107	0x3fc3d7bc	1.5300212
108	0x3f6d71d6	0.92751825
109	0x3e3f3f6c	0.18676537
110	0x3df5908c	0.11990461
111	0xc11fab94	-9.979389
112	0x403f0db5	2.9852116
113	0x3fa8b380	1.3179779
114	0x3e0ab9a7	0.13547383
115	0x3fd236e8	1.6423006
116	0x4026f7d5	2.6088765
117	0xbf2d660b	-0.6773383
118	0xbf382a1c	-0.71939254
119	0xbd359dd8	-0.044339985
120	0xc0ee1151	-7.439614
121	0x3e5f1cf0	0.21788383
122	0xbdb98d28	-0.090601265
123	0x3f2db561	0.6785489
124	0x3f66471d	0.8995226
125	0x3e262f77	0.16229044
126	0xbe7803b5	-0.24220164
127	0x3ded8ba2	0.115988985
128	0xbf64014f	-0.89064497
129	0xc08241c3	-4.0705276
130	0x3dced3d1	0.100989945
131	0xbe75cc30	-0.24003673
132	0xc0806d02	-4.0133066
133	0xbfe6ae73	-1.8021988
134	0x3f9d61a3	1.2295421
135	0x3fce218d	1.6103989
136	0x3e344a3b	0.17606442
137	0x3e75c8a4	0.2400232
138	0xc056856c	-3.3518934
139	0x3e11c1d6	0.14234099
140	0xbe86429d	-0.26222697
141	0x402b6cf5	2.6785252
142	0x4020d5ef	2.5130575
143	0x3c9c5c60	0.019087017
144	0x3ddc7ea0	0.10766339
145	0xc080b0df	-4.0215907
146	0xc0228bce	-2.539783
147	0x3ffef0a3	1.9917186
148	0xbdb25a6e	-0.08708654
149	0xbe0dae60	-0.1383605
150	0xbe395812	-0.18100002
151	0xbe5fb036	-0.21844563
152	0x3eb92e0f	0.36167952
153	0xc04f0b2f	-3.2350576
154	0x3f912413	1.1339134
155	0xc005bbd4	-2.089589
156	0xbc9db780	-0.019252539
157	0xbe04d3ec	-0.12971467
158	0xc0a683e9	-5.2036023
159	0xbf3c42d9	-0.735395
160	0xc04ddb70	-3.2165184
161	0xbdaf86d7	-0.085706405
162	0xbe46d5f8	-0.1941756
163	0xbfb2f711	-1.3981649
164	0xbde117e8	-0.10990888
165	0x3e78dfef	0.24304174
166	0xc09a5196	-4.822459
167	0x3fae997f	1.3640593
168	0x3f4f54e0	0.80988884
169	0xbdceb566	-0.10093193
170	0x3fef91b1	1.8716336
171	0x3f67500f	0.90356535
172	0x3fe2543a	1.7681954
173	0x3d1eebbd	0.038799036
174	0xbd0bfa08	-0.034173995
175	0xbfaf16eb	-1.3678869
176	0xc0a8fb1e	-5.280654
177	0xbf82c221	-1.0215493
178	0x3dbd02ff	0.09229087
179	0x3fd88fa5	1.6918837
180	0xbdd78761	-0.10523868
181	0xbf9fc067	-1.2480592
182	0xc03a9696	-2.915441
183	0xbdd216ba	-0.10258241
184	0xbfff8cb7	-1.9964818
185	0x3df1ca98	0.1180622
186	0xbf552638	-0.8326144
187	0xc03edadf	-2.9821088
188	0x3efa0a74	0.488361
189	0xbf17101d	-0.5900896
190	0x3f55d477	0.8352732
191	0xbe19cb53	-0.15018968
192	0x3ec773c5	0.38955513
193	0xc0357f1a	-2.8358827
194	0xbd97c389	-0.07410342
195	0x3d817080	0.06320286
196	0xc058831a	-3.3830018
197	0xbea17afa	-0.31539136
198	0x3f0974d1	0.5369387
199	0x3f9e2feb	1.2358373
200	0xbe031608	-0.12801373
201	0xbe640ae5	-0.22269781
202	0xbfeca3a8	-1.8487444
203	0xbe25ddd4	-0.16197902
204	0x3e753646	0.23946485
205	0x3ebb9a7d	0.36641303
206	0x3f809c20	1.0047646
207	0xbe7b17ba	-0.2452077
208	0xbe68b6e1	-0.22726013
209	0xc0d0bc13	-6.5229583
210	0xc025795f	-2.585533
211	0x3f00adde	0.502653
212	0xbdef36ff	-0.116804115
213	0x3e64369c	0.22286457
214	0x3da66f58	0.08126706
215	0xbe06082b	-0.13089053
216	0xc1172d10	-9.448502
217	0xc0191b82	-2.392304
218	0xc0042412	-2.0647016
219	0xbf9f693f	-1.2453994
220	0xbd934b48	-0.07192093
221	0x3e01bdca	0.12670055
222	0xc13bef0b	-11.74586
223	0xc0d8bc84	-6.773012
224	0x3f3f48b0	0.7472029
225	0xbe1c4965	-0.15262373
226	0xbf9bc9c1	-1.2170945
227	0x3f7b5e22	0.9819051
228	0x3e00b352	0.12568405
229	0x3d5f9df0	0.05459398
230	0xbf4dd3fc	-0.8040159
231	0x3f28de4a	0.65964186
232	0x3e5715a6	0.21004352
233	0xbded8518	-0.11597651
234	0x3f283002	0.65698254
235	0xbf87d09b	-1.0610536
236	0xc05fb630	-3.4954948
237	0x3cc61d49	0.024183886
238	0x3dbc78a8	0.09202701
239	0x3ee56160	0.44800854
240	0xc13f1e23	-11.944858
241	0xbe5e53b5	-0.21711619
242	0x3cc3f15d	0.023918802
243	0x3ed56249	0.41676548
244	0xc0fecfb3	-7.962854
245	0xbf12f857	-0.57410187
246	0xbed61be5	-0.41818157
247	0x3cdd0b10	0.026982814
248	0x3f13b98c	0.57705
249	0xbe34c2d8	-0.17652452
250	0xbde8149a	-0.113320544
251	0x3fdabc82	1.7088778
252	0x3dbe386d	0.09288106
253	0x3ebc8b2a	0.36824924
254	0x3f792513	0.97322196
255	0x3e6831ed	0.22675295
