Flask/Linux/static/model/modelRight.tflite (tflite, 18148 bytes, 4 tensors)

sequential_2/dense_4/BiasAdd/ReadVariableOp/resource f4 [64]
1.2039756 -0.48478392 -0.08458839 0.0 0.0 -0.01336678 1.5122626 0.0
-0.44602212 -0.15767142 0.0 0.0 1.3739935 0.1931646 0.0 -0.023992248
-0.30332 0.0 -1.3874959 0.5607624 1.2627543 -0.029643482 -0.008700375 -0.025115095
0.0 0.0 -0.24066237 0.0 0.0 -0.35755494 0.2197374 -0.031553864
0.055334114 -0.41597125 0.14739774 -0.26508084 0.6701156 -0.1516983 0.0 0.0
0.30957276 0.73060477 0.0 0.50977707 0.0 0.6239431 -0.029738825 -0.008364284
0.0 -0.030389085 -0.31136945 -0.010504193 -0.35313332 1.7557085 -0.023943271 -0.018899273
-2.847296 -0.474063 -0.05881153 0.40453762 0.0 0.4117296 0.0 0.7083172
00000000: df1b 9a3f 9935 f8be ae3c adbd 0000 0000
00000010: 0000 0000 5700 5bbc d291 c13f 0000 0000
00000020: 035d e4be 9e74 21be 0000 0000 0000 0000
00000030: 05df af3f f1cc 453e 0000 0000 648b c4bc
00000040: c24c 9bbe 0000 0000 7799 b1bf 208e 0f3f
00000050: efa1 a13f e3d6 f2bc 058c 0ebc 2cbe cdbc
00000060: 0000 0000 0000 0000 3270 76be 0000 0000
00000070: 0000 0000 7111 b7be d702 613e a03e 01bd
00000080: 06a6 623d 2ffa d4be 6fef 163e adb8 87be
00000090: b28c 2b3f cd56 1bbe 0000 0000 0000 0000
000000a0: 5280 9e3e ea08 3b3f 0000 0000 c080 023f
000000b0: 0000 0000 bcba 1f3f d69e f3bc 5a0a 09bc
000000c0: 0000 0000 88f2 f8bc d16b 9fbe c719 2cbc
000000d0: e4cd b4be 0ebb e03f ae24 c4bc a6d2 9abc
000000e0: 193a 36c0 63b8 f2be 5ce4 70bd 8e1f cf3e
000000f0: 0000 0000 39ce d23e 0000 0000 4754 353f

sequential_2/dense_5/BiasAdd/ReadVariableOp/resource f4 [24]
-0.7083056 -0.46849948 0.18556459 0.886249 -1.5595322 -1.3276494 -1.6293207 1.3982341
0.4197206 -2.9975886 -0.7607006 -0.4727538 0.60931146 -0.013246884 -0.032937422 0.41080076
0.1715246 -0.16451646 -0.0014779713 0.13306825 0.8032808 -0.22732322 -0.8129594 0.26412395
00000000: 8453 35bf 2adf efbe a504 3e3e 37e1 623f
00000010: c09e c7bf 6af0 a9bf 958d d0bf 56f9 b23f
00000020: 9ee5 d63e 7ed8 3fc0 46bd 42bf c90c f2be
00000030: d6fb 1b3f 7509 59bc 64e9 06bd 7a54 d23e
00000040: 25a4 2f3e 0177 28be 7db8 c1ba 0b43 083e
00000050: cfa3 4d3f 6bc7 68be 1b1e 50bf 413b 873e

sequential_2/dense_4/MatMul f4 [64, 40]
1.044484 0.85276306 0.6806471 1.8294138 0.038163185 1.472528 0.729038 0.09723001
-0.33057263 -0.02160984 -0.15841843 0.24484992 -0.58565277 -0.6765478 -0.45455033 -0.5782039
-1.3330429 -1.3752037 -1.1387275 -1.9208372 0.845752 -0.7194803 -3.6108747 1.8233474
0.2445049 0.652688 0.88424 -1.0957754 0.91795236 -1.208231 -0.62548584 -0.32431948
0.7537547 -0.94340885 -0.0017020372 0.08903515 0.5422317 -0.22563244 -0.17521106 0.11676479
0.4676128 1.2530981 1.0199239 -0.06370707 1.0082967 -1.4686968 -0.32148033 1.242596
0.28134313 -0.24436419 0.4070375 1.1298083 -0.09775657 -0.1407897 -0.14166462 -0.042289007
-0.72333163 -0.28465554 -0.08741506 -0.4829126 -1.9385834 -0.99500597 1.5995598 0.05206732
0.10569453 0.5146874 -0.14037266 1.5757853 0.5360246 0.82858723 -0.583621 -1.3483742
0.96219087 1.3937999 -0.6705485 -1.3736238 1.2888808 1.0341551 -0.9709255 -2.0050902
-1.4490331 0.08425595 0.54915917 -0.45113003 0.8416224 -2.1364658 -0.34635976 1.9388527
0.17959842 0.2592709 0.658511 0.93319124 -0.16211137 -0.07306708 0.11081354 -0.30194497
-0.34682417 -0.015963374 -0.25701746 0.086278036 0.82545024 1.2359313 2.685366 -0.4194618
-0.28988144 -2.5726335 -1.7523191 3.1462 -0.7312986 0.76029456 -0.46737802 -0.72514
-0.70821846 0.748444 -0.12713544 -0.52642095 -0.38633034 0.71583474 -0.2227653 -0.30437723
0.1846712 -0.19412614 -0.039802358 0.2245366 -0.042193055 0.12702924 0.0021324754 -0.053801104
0.09965828 -0.08271401 -0.03545122 -0.09920193 -0.17908332 0.061530113 -0.2277063 -0.14863214
-0.11153172 0.02443862 -0.036811113 -0.06506848 0.056150973 -0.16844931 -0.21998027 -0.09111376
-0.16026029 -0.12764908 0.23157063 -0.14878413 -0.016082153 -0.07928908 0.06097302 -0.09351431
0.1426717 -0.14536768 0.16059661 0.0013094544 0.17688876 0.16192228 0.069440484 -0.20804219
0.19012639 0.04276693 0.0194 -0.2014418 -0.15988123 0.22846085 0.23884878 -0.14712317
-0.11848086 -0.03466077 0.1009717 -0.0025841445 0.20019403 0.09407404 -0.1362585 0.2148467
-0.2271066 0.120774835 0.12718844 -0.14300579 -0.14821908 -0.05833614 0.17307156 -0.22518784
-0.16588567 -0.08081271 -0.17285074 -0.027192608 -0.17296316 -0.052435532 -0.022978336 0.10209188
-0.2079426 -0.11490275 -0.14377847 0.12909254 -0.12058855 -0.23919065 -0.029887736 0.19182849
0.120822534 -0.013790125 -0.1829414 0.19753374 -0.17841394 -0.17020464 0.1417383 -0.24457848
-0.052626137 0.00022562928 0.19795085 0.02172801 0.14487845 -0.14408599 0.0644251 -0.07186312
-0.12237026 0.073624514 0.09205216 0.06276646 0.11656038 -0.058462154 0.066638 0.107767574
0.1924472 -0.18365212 0.050750934 -0.08971387 0.13543198 -0.24160014 0.012331966 -0.20398276
0.021028139 -0.11842823 -0.11714631 -0.03708628 -0.05451808 -0.0144770155 -0.109814934 0.0831502
1.5844579 0.3551992 -0.28543758 -0.35261667 1.1672652 -0.07580401 0.44505122 1.0576961
1.5731305 -1.2392204 -1.0666269 -0.42921934 1.5536946 -1.0612549 -1.0824186 -0.28559518
00000000: a7b1 853f ae4e 5a3f e33e 2e3f 3b2a ea3f
00000010: 0051 1c3d cc7b bc3f 3ca2 3a3f 8720 c73d
00000020: d140 a9be 1f07 b1bc 7138 22be f0b9 7a3e
00000030: 57ed 15bf 3d32 2dbf d2ba e8be 2c05 14bf
00000040: 26a1 aabf ad06 b0bf d3c1 91bf fedd f5bf
00000050: 3483 583f dc2f 38bf 9218 67c0 7363 e93f
00000060: 7e5f 7a3e 9016 273f 8d5d 623f 5e42 8cbf
00000070: edfe 6a3f 50a7 9abf d71f 20bf 340d a6be
00000080: 11f6 403f 3e83 71bf e416 dfba 1058 b63d
00000090: b2cf 0a3f 310c 67be 876a 33be 6122 ef3d
000000a0: f26a ef3e 8565 a03f de8c 823f da78 82bd
000000b0: de0f 813f 42fe bbbf 1299 a4be 630d 9f3f
000000c0: 350c 903e 9b3a 7abe 3867 d03e 8f9d 903f
000000d0: 9934 c8bd 2d2b 10be 8810 11be 3d37 2dbd
000000e0: 432c 39bf 5fbe 91be ab06 b3bd 5240 f7be
000000f0: 8023 f8bf b6b8 7ebf 60be cc3f 8b44 553d
00000100: 6076 d83d 8ec2 033f dabd 0fbe 55b3 c93f
00000110: e838 093f 4b1e 543f 3068 15bf 8797 acbf
00000120: 2452 763f 0968 b23f 11a9 2bbf e8d2 afbf
00000130: 0cfa a43f 325f 843f 938e 78bf 6653 00c0
00000140: eb79 b9bf 628e ac3d b295 0c3f 84fa e6be
00000150: 9174 573f dbbb 08c0 1156 b1be 532c f83f
00000160: a6e8 373e 28bf 843e 2d94 283f 9fe5 6e3f
00000170: 8600 26be 31a4 95bd 36f2 e23d 8898 9abe
00000180: f092 b1be 9fc5 82bc cb97 83be 8ab2 b03d
00000190: b550 533f ff32 9e3f 09dd 2b40 b2c3 d6be
000001a0: 576b 94be 07a6 24c0 fe4b e0bf 575b 4940
000001b0: 6336 3bbf aaa2 423f 2c4c efbe c6a2 39bf
000001c0: ce4d 35bf 079a 3f3f cb2f 02be 86c3 06bf
000001d0: 17cd c5be f240 373f 961c 64be 55d7 9bbe
000001e0: 721a 3d3e 01c9 46be cc07 23bd ecec 653e
000001f0: a0d2 2cbd f413 023e 00c1 0b3b 8c5e 5cbd
00000200: a419 cc3d f665 a9bd 4c35 11bd 622a cbbd
00000210: 9e61 37be 0007 7c3d d72b 69be 0633 18be
00000220: be6a e4bd 8033 c83c 40c7 16bd a042 85bd
00000230: 90fe 653d fa7d 2cbe 8242 61be da99 babd
00000240: 461b 24be 71b6 02be da20 6d3e de5a 18be
00000250: b8be 83bc 5062 a2bd d8be 793d 6e84 bfbd
00000260: 8818 123e 44db 14be 7073 243e 00a2 ab3a
00000270: 5422 353e f4ce 253e d036 8e3d 0309 55be
00000280: 7eb0 423e 602c 2f3d c0ec 9e3c c246 4ebe
00000290: e8b7 23be a4f1 693e c694 743e 75a7 16be
000002a0: 18a6 f2bd 74f8 0dbd 40ca ce3d c05a 29bb
000002b0: aaff 4c3e e4a9 c03d 5987 0bbe c600 5c3e
000002c0: a28e 68be cc58 f73d b03d 023e 1c70 12be
000002d0: bec6 17be e0f1 6ebd ac39 313e a497 66be
000002e0: efdd 29be 2281 a5bd c9ff 30be 08c3 debc
000002f0: 411d 31be a4c6 56bd 103d bcbc 8c15 d13d
00000300: e8ee 54be 2252 ebbd aa3a 13be d630 043e
00000310: 21f7 f6bd 65ee 74be 20d7 f4bc b06e 443e
00000320: ce71 f73d faef 61bc fe54 3bbe 4946 4a3e
00000330: 25b2 36be 204a 2ebe d823 113e c872 7abe
00000340: 818e 57bd e696 6c39 a1b3 4a3e f1fe b13c
00000350: 045b 143e 478b 13be 4ff1 833d f92c 93bd
00000360: 429d fabd 73c8 963d d885 bc3d b48b 803d
00000370: 35b7 ee3d 0376 6fbd 8179 883d 3fb5 dc3d
00000380: e110 453e 4d0f 3cbe 36e0 4f3d e8bb b7bd
00000390: aeae 0a3e 0766 77be 040c 4a3c dbe0 50be
000003a0: 3443 ac3c 808a f2bd 68ea efbd c8e7 17bd
000003b0: 5a4e 5fbd 0131 6dbc a7e6 e0bd a74a aa3d
000003c0: 84cf ca3f abdc b53e e024 92be 2c8a b4be
000003d0: f268 953f 223f 9bbd c1dd e33e 9662 873f
000003e0: 575c c93f c69e 9ebf 3b87 88bf a3c2 dbbe
000003f0: 77df c63f 33d7 87bf b18c 8abf 8839 92be

sequential_2/dense_5/MatMul f4 [24, 64]
0.0021166413 -1.757845 -3.4332643 0.1857521 -0.055220827 -0.2831062 0.21538492 0.23527554
-0.5427414 2.1046813 -0.03449464 0.05297473 3.910595 0.9254583 -0.09780276 0.08154058
-1.1499037 -0.14539728 -0.08425742 -0.2500991 -0.021589816 0.20633368 0.13573793 -0.053149402
0.06454083 0.15374929 -4.876391 -0.019065604 0.24089423 -0.34198332 3.2258248 0.22735564
1.6318152 -0.3499569 -1.4339767 -0.7457564 -4.332422 -2.3321102 0.06853405 0.19067734
0.9466116 1.7746497 0.0107063055 0.008139853 0.03637883 -4.0190034 0.21325387 -0.23209657
0.14215568 0.14337976 -0.6892029 -0.16759911 0.56546664 -1.1137882 -0.20992157 0.07095034
-0.38402057 2.0162401 0.21993612 -0.45440707 0.009269953 -5.4485335 -0.19838646 0.16426644
-0.61021674 -0.06878804 4.790743 0.010395467 0.2395347 -0.058198933 -2.6789117 -0.049973905
3.2008295 -2.2559667 -0.12368485 -0.14737332 3.5795891 -5.366254 0.17691264 -4.993632
2.0117116 0.13209605 -0.7198495 -0.24169494 -2.0240939 -0.20556335 0.19262414 0.06647105
0.2470316 -0.19472086 -17.435787 0.13430381 0.13910791 4.989552 1.3310038 -0.041260462
-0.26966769 -1.2878485 2.4875479 0.85913473 -4.255113 2.8709226 -0.093995124 -0.067068264
1.8336335 -0.7670984 -0.20391719 -2.594342 0.09868118 -2.175705 0.059582543 0.106017716
-0.18426913 -0.09865629 -2.218615 -0.07752475 -4.683308 0.24390155 -0.26162007 -0.0681975
-7.2643886 -9.484188 0.10572678 -2.9948833 0.18593618 0.8698602 -0.115456045 -0.1334566
-0.8860038 -5.4893107 1.8247759 -0.24551973 0.045187503 0.17268269 -0.97063637 0.21254319
1.1949445 -0.0077443225 -0.15329103 0.13607809 -1.8868012 0.79253197 -0.0016247928 -2.8033981
0.85062027 0.13807335 -0.41462138 -5.776376 -0.41563278 0.21640036 -0.20216715 -0.10802031
0.044980317 0.19400844 -4.855059 0.20567322 -0.059934214 2.7970793 1.4169407 0.020956323
-9.668212 0.61862004 -3.2250464 1.4329067 -0.3354498 -1.0942461 -0.23981747 0.19926986
1.7105232 -2.095215 -0.25152093 0.12291645 -0.22769387 -2.07921 -0.17335884 0.15645452
0.050160438 -0.15341252 0.8298695 0.09091424 1.3342804 -0.101173624 0.037965417 -0.18714882
-1.9262911 -0.12668723 -0.13372312 -3.153612 0.09960312 -0.8132497 -0.05595158 0.79299647
-5.976181 -2.40778 -0.051042467 -0.17247616 0.19727358 0.1269803 1.5492314 -0.11886257
-0.32015765 0.43053403 -0.02658096 -0.1668394 0.14864132 1.0345758 -0.10030772 -0.1354748
0.55656666 0.24276605 0.30294055 -6.193873 -0.2206091 0.21949573 -0.11693704 -0.15206847
-0.17917617 0.15869254 -1.0002749 -0.10480085 -0.23885968 -2.0358582 -4.1227574 0.12920476
-8.262482 0.2106968 -8.686962 0.22423938 -0.2737344 -3.0897012 0.13352686 0.2157208
0.9851855 1.5879984 0.21569902 -4.6703935 -0.050526857 1.1191242 0.12163832 0.023954153
-0.15731782 -0.22599265 -0.6042917 -0.14676999 1.266452 -7.971398 0.22956693 -0.24324454
-2.8686175 0.658619 -0.2041094 0.5462487 0.101301044 -7.044512 0.06129697 -2.0919933
00000000: 59b7 0a3b 1101 e1bf 9aba 5bc0 cc35 3e3e
00000010: 3c2f 62bd 4cf3 90be dd8d 5c3e 12ec 703e
00000020: 1af1 0abf 19b3 0640 404a 0dbd 08fc 583d
00000030: 3047 7a40 d6ea 6c3f d04c c8bd bffe a63d
00000040: 0b30 93bf 06e3 14be 278f acbd fd0c 80be
00000050: 20dd b0bc 2349 533e e2fe 0a3e 30b3 59bd
00000060: fc2d 843d 7470 1d3e 650b 9cc0 782f 9cbc
00000070: faac 763e 7018 afbe ea73 4e40 ebcf 683e
00000080: 52df d03f 8d2d b3be 8c8c b7bf e4e9 3ebf
00000090: 33a3 8ac0 4b41 15c0 945b 8c3d ec40 433e
000000a0: 2355 723f b927 e33f 8069 2f3c 055d 053c
000000b0: f801 153d ad9b 80c0 395f 5a3e b9aa 6dbe
000000c0: 4291 113e 25d2 123e 9a6f 30bf 1a9f 2bbe
000000d0: 6cc2 103f 9d90 8ebf aef5 56be 694e 913d
000000e0: 589e c4be 140a 0140 ef36 613e 0ba8 e8be
000000f0: 00e1 173c 635a aec0 d225 4bbe 7635 283e
00000100: 2a37 1cbf bee0 8cbd c44d 9940 c051 2a3c
00000110: 9648 753e 0162 6ebd 4a73 2bc0 70b1 4cbd
00000120: 64da 4c40 c261 10c0 7c4e fdbd 08e9 16be
00000130: fd17 6540 5ab8 abc0 9628 353e d5cb 9fc0
00000140: e2bf 0040 3044 073e 0f48 38bf e17e 77be
00000150: c18a 01c0 337f 52be 433f 453e f921 883d
00000160: daf5 7c3e e864 47be 7e7c 8bc1 f086 093e
00000170: 4e72 0e3e 69aa 9f40 555e aa3f bb00 29bd
00000180: e211 8abe 38d8 a4bf fc33 1f40 41f0 5b3f
00000190: e329 88c0 32bd 3740 8480 c0bd 165b 89bd
000001a0: 81b4 ea3f 9060 44bf abcf 50be b309 26c0
000001b0: 5c19 ca3d c03e 0bc0 d30c 743d d11f d93d
000001c0: 0cb1 3cbe 4f0c cabd cafd 0dc0 4cc5 9ebd
000001d0: a9dd 95c0 54c1 793e 11f3 85be 22ab 8bbd
000001e0: df75 e8c0 3cbf 17c1 4887 d83d 2bac 3fc0
000001f0: 0e66 3e3e 28af 5e3f 3874 ecbd d9a8 08be
00000200: 25d1 62bf 6fa8 afc0 4292 e93f 8669 7bbe
00000210: 8816 393d bbd3 303e a07b 78bf eca4 593e
00000220: f1f3 983f 16c4 fdbb 53f8 1cbe 0e58 0b3e
00000230: b482 f1bf 60e3 4a3f 00f7 d4ba e06a 33c0
00000240: 40c2 593f 1a63 0d3e 4149 d4be 12d8 b8c0
00000250: d2cd d4be 0e98 5d3e e804 4fbe c139 ddbd
00000260: 483d 383d 26aa 463e a55c 9bc0 009c 523e
00000270: 947d 75bd 5903 3340 505e b53f 98ac ab3c
00000280: ffb0 1ac1 e25d 1e3f 2967 4ec0 7d69 b73f
00000290: 14c0 abbe 4210 8cbf b692 75be 660d 4c3e
000002a0: 6df2 da3f 0118 06c0 5ac7 80be 9fbb fb3d
000002b0: 9528 69be c711 05c0 fb84 31be 9d35 203e
000002c0: 0875 4d3d 2c18 1dbe 5472 543f 3f31 ba3d
000002d0: b3c9 aa3f 1e34 cfbd a081 1b3d f1a3 3fbe
000002e0: b590 f6bf 4cba 01be b7ee 08be c7d4 49c0
000002f0: b8fc cb3d 2231 50bf 7c2d 65bd d101 4b3f
00000300: e03c bfc0 1119 1ac0 e811 51bd 979d 30be
00000310: 1602 4a3e 2007 023e 374d c63f 386e f3bd
00000320: b4eb a3be f56e dc3e 50c0 d9bc f3d7 2abe
00000330: 6e35 183e fb6c 843f 226e cdbd e8b9 0abe
00000340: 277b 0e3f aa97 783e 061b 9b3e 3534 c6c0
00000350: 5ae7 61be 7dc3 603e b07c efbd d6b7 1bbe
00000360: f579 37be 4c80 223e 0209 80bf d4a1 d6bd
00000370: a297 74be 804b 02c0 a1ed 83c0 414e 043e
00000380: 2033 04c1 e7c0 573e ccfd 0ac1 029f 653e
00000390: ea26 8cbe aabd 45c0 44bb 083e eae5 5c3e
000003a0: 1e35 7c3f 8843 cb3f 34e0 5c3e dd73 95c0
000003b0: 40f5 4ebd 763f 8f3f 831d f93d 803b c43c
000003c0: ec17 21be 9e6a 67be dcb2 1abf df4a 16be
000003d0: 191b a23f b115 ffc0 9813 6b3e 1915 79be
000003e0: 6e97 37c0 419b 283f 0e02 51be f4d6 0b3f
000003f0: ec76 cf3d a46c e1c0 8812 7b3d 38e3 05c0
