Flask/Linux/static/model/modelRight.tflite (tflite, 18420 bytes, 4 tensors)

sequential_5/dense_10/BiasAdd/ReadVariableOp/resource f4 [64]
-0.020639652 1.1362607 0.28513974 0.0 0.0 0.0 0.15586028 -0.26945972
0.19157438 -0.031330843 -0.16250448 0.0 -0.83661324 -1.1113086 0.0 0.0
1.3883934 0.14745167 -0.35459065 0.70669717 0.0 0.8163064 0.25097203 0.47748476
0.13670239 -0.03455605 0.45204523 0.08137759 0.86950326 0.0 -0.015375797 -0.728456
0.0 0.6329286 0.0 -0.010589613 -0.039789658 -0.02239534 0.0 -0.20591968
0.0 0.32706773 0.6186934 0.0 0.6105516 -0.012345506 -0.40279493 -0.03991542
0.0 0.82844526 0.0587218 0.87199366 -0.15489723 0.030788204 0.3490154 0.0
1.0525271 0.0 -0.35241565 -3.1560354 -0.0070345826 0.27357176 -0.07856736 0.31801176
00000000: 7d14 a9bc fe70 913f d6fd 913e 0000 0000
00000010: 0000 0000 0000 0000 d699 1f3e a0f6 89be
00000020: 132c 443e c554 00bd 9367 26be 0000 0000
00000030: 492c 56bf 5c3f 8ebf 0000 0000 0000 0000
00000040: e0b6 b13f 92fd 163e e88c b5be 1bea 343f
00000050: 0000 0000 75f9 503f 687f 803e e278 f43e
00000060: b6fb 0b3e a58a 0dbd 7972 e73e 4ba9 a63d
00000070: c497 5e3f 0000 0000 c4ea 7bbc 187c 3abf
00000080: 0000 0000 9c07 223f 0000 0000 0e80 2dbc
00000090: 7bfa 22bd 6f76 b7bc 0000 0000 9cdc 52be
000000a0: 0000 0000 6c75 a73e b162 1e3f 0000 0000
000000b0: 1c4d 1c3f ce44 4abc 233b cebe 5a7e 23bd
000000c0: 0000 0000 fd14 543f 4586 703d fa3a 5f3f
000000d0: 619d 1ebe 8b37 fc3c 26b2 b23e 0000 0000
000000e0: 35b9 863f 0000 0000 d36f b4be 7cfc 49c0
000000f0: 5b82 e6bb 9911 8c3e ede7 a0bd 70d2 a23e

sequential_5/dense_11/BiasAdd/ReadVariableOp/resource f4 [25]
0.034071334 0.31303707 0.9357919 1.0133142 -2.1095982 -1.1268898 -0.7164339 1.2832162
-0.82242876 -2.3940744 -1.1113098 -0.45530266 0.18644777 -0.06625259 -0.3222618 0.9947865
-0.05838694 -0.97058034 0.145104 0.84653854 0.7271562 -0.43781868 -1.2063321 0.3372468
-0.2309254
00000000: 628e 0b3d 6546 a03e 0f90 6f3f 48b4 813f
00000010: a803 07c0 ed3d 90bf 3668 37bf 6e40 a43f
00000020: b18a 52bf 8438 19c0 663f 8ebf 6e1d e9be
00000030: 2aec 3e3e 70af 87bd 80ff a4be 54aa 7e3f
00000040: 2527 6fbd f477 78bf 2596 143e c0b6 583f
00000050: e926 3a3f c529 e0be 1769 9abf 9dab ac3e
00000060: b577 6cbe

sequential_5/dense_10/MatMul f4 [64, 40]
-0.25067797 -0.02087378 0.1745622 0.112060316 0.20836185 -0.19745325 0.11086885 -0.05545861
0.06568884 0.040544108 -0.0379231 -0.24319294 0.07926221 0.17617542 0.07338023 -0.07292995
-0.21483216 -0.21217282 -0.20063718 0.16180913 -0.02010553 0.1945186 -0.15182745 -0.17811464
0.05191018 -0.25402164 0.12007228 0.05575893 0.06815484 0.05771485 0.08680775 -0.113375425
-0.13461463 0.17004845 -0.18095018 -0.13132489 0.06288035 0.1285582 -0.042949453 -0.13050571
1.2869345 0.24749057 -0.4679451 -0.5617006 1.165918 3.0094793 0.33747846 -1.8353992
1.0419742 0.1499648 -1.080467 -1.6113096 1.1047889 -0.4331821 -0.717888 -0.7091495
0.59205943 -0.42730427 -0.45620754 -0.21436532 0.71062386 -0.47974643 -2.2568746 -0.60231483
0.35210583 1.960704 2.0452948 -2.3864105 0.41340733 -1.1896971 -0.9359282 -1.0995897
-0.10078956 -0.9028742 1.0212622 1.8028733 -0.046785492 -0.84107655 0.47971088 1.3249383
0.65650326 1.0497807 0.8860468 0.95982766 1.055685 -0.3697092 0.5741269 1.6933122
1.1700242 -0.15630752 -0.308657 -0.10382994 0.5686366 0.023135426 -0.48528117 -0.6429628
-0.009215649 -0.7447292 -1.9908549 -3.3487709 1.277399 0.09678419 -0.16222234 1.0223843
-1.0273846 -2.077282 -1.331341 1.2887743 -0.6900344 0.55666906 -0.908672 -2.0966237
-0.049506165 1.1887985 0.7356703 0.6014813 0.73029685 0.9331306 -0.29343918 -1.2438837
0.0901759 -0.22395484 -0.15245238 0.1415377 0.09430981 0.023619413 -0.22135311 -0.030964747
-0.16928574 0.20093265 0.00014442205 0.036774337 0.23920673 -0.025527418 -0.23765425 -0.18845609
0.0275065 0.12709343 -0.09880319 0.07804152 -0.040613934 0.08820504 0.1250768 -0.01964663
-0.17654395 0.029816508 -0.16927515 0.23000565 -0.118489794 0.022770852 -0.23374955 -0.10742223
-0.14425653 0.029319197 -0.12224784 -0.23585317 0.011312723 0.0043691844 -0.23578279 0.011176258
-0.12749133 -0.10924496 0.0016968548 -0.14385465 -0.011469409 0.14373937 0.1800951 0.1346673
-0.123287626 -0.21949768 0.07290119 -0.14614335 -0.116246045 0.16717118 -0.1878064 0.015224934
-0.18418849 -0.14802507 -0.19793946 0.22067142 -0.18311258 -0.20317043 0.14771137 -0.0801696
-0.12182688 -0.23959139 -0.19534981 0.15766585 -0.0346898 0.04626286 -0.20322599 0.17869672
-0.20574461 -0.2258641 -0.05516851 -0.08840215 -0.071242705 -0.019866243 0.23157966 0.04116741
0.18697226 0.20137715 0.053728163 -0.0071806163 -0.04878126 0.2390554 -0.20334762 -0.15005858
-0.1749728 -0.06358804 -0.18780635 0.0015154332 -0.0791561 0.23054126 -0.18923892 0.021935105
-0.13224642 0.1589804 -0.13641793 -0.23066467 -0.22771883 0.22380078 0.0021018386 0.17394698
-0.0445309 -0.16370794 0.14124194 0.12477636 -0.21311937 -0.16610867 -0.11931031 -0.050124332
-0.06931873 0.20637053 0.010836959 -0.19146836 -0.015085027 -0.23823532 -0.18877387 0.060231537
1.2015738 0.47354367 -0.66360676 -1.512082 0.6435427 0.41179165 0.61663926 1.2906418
-0.043692086 0.051301453 -0.008182766 0.35660356 0.08764983 -0.1588146 0.3729264 0.7071123
00000000: dd58 80be 7dff aabc 6fc0 323e e17f e53d
00000010: cf5c 553e 2f31 4abe 350f e33d 9128 63bd
00000020: df87 863d 9411 263d 4155 1bbd 9207 79be
00000030: 3a54 a23d 5467 343e 6048 963d 4c5c 95bd
00000040: f6fc 5bbe d543 59be d573 4dbe 4bb1 253e
00000050: 5ab4 a4bc e22f 473e a878 1bbe af63 36be
00000060: c59f 543d 200f 82be 75e8 f53d 7a63 643d
00000070: c494 8b3d 6866 6c3d 43c8 b13d 6031 e8bd
00000080: 6bd8 09be 2e21 2e3e 014b 39be 087a 06be
00000090: 6ac7 803d c3a4 033e c4eb 2fbd 4aa3 05be
000000a0: 45ba a43f 2b6e 7d3e 8096 efbe 9ccb 0fbf
000000b0: cd3c 953f 4f9b 4040 fac9 ac3e 5cee eabf
000000c0: 695f 853f 5f90 193e be4c 8abf 653f cebf
000000d0: b969 8d3f 0bca ddbe 82c7 37bf d28a 35bf
000000e0: 3591 173f a0c7 dabe 0994 e9be 9582 5bbe
000000f0: 72eb 353f 53a1 f5be a270 10c0 4e31 1abf
00000100: 3747 b43e 59f8 fa3f 1ce6 0240 f3ba 18c0
00000110: 20aa d33e ff47 98bf fe98 6fbf 5bbf 8cbf
00000120: c26a cebd c322 67bf b8b8 823f 8dc4 e63f
00000130: 25a2 3fbd cb50 57bf aa9c f53e 9497 a93f
00000140: 9910 283f 375f 863f f7d3 623f 44b7 753f
00000150: b020 873f 864a bdbe fbf9 123f 74be d83f
00000160: 5ac3 953f 140f 20be 4a08 9ebe cba4 d4bd
00000170: 2b92 113f 8186 bd3c c676 f8be 3699 24bf
00000180: 3cfd 16bc 93a6 3ebf 55d4 febf 4352 56c0
00000190: cf81 a33f ca36 c63d 9d1d 26be 7ddd 823f
000001a0: 5781 83bf 30f2 04c0 6269 aabf 8ef6 a43f
000001b0: 18a6 30bf dd81 0e3f ba9e 68bf 152f 06c0
000001c0: fac6 4abd 8d2a 983f e454 3c3f aefa 193f
000001d0: bcf4 3a3f a6e1 6e3f a93d 96be 9537 9fbf
000001e0: 24ae b83d 6b54 65be 7a1c 1cbe 42ef 103e
000001f0: 8025 c13d 807d c13c 64aa 62be c8a9 fdbc
00000200: 3e59 2dbe 4ac1 4d3e 0070 1739 b0a0 163d
00000210: 9cf2 743e e01e d1bc a35b 73be a2fa 40be
00000220: 5055 e13c c824 023e 5459 cabd 3cd4 9f3d
00000230: cc5a 26bd d8a4 b43d 2214 003e f8f1 a0bc
00000240: f0c7 34be c041 f43c 7756 2dbe 9a86 6b3e
00000250: c7aa f2bd f089 ba3c 0b5c 6fbe 3000 dcbd
00000260: fcb7 13be d02e f03c 135d fabd 7e83 71be
00000270: 0059 393c 602b 8f3b 0b71 71be a01c 373c
00000280: 168d 02be d2bb dfbd 0069 de3a a24e 13be
00000290: 30ea 3bbc 6a30 133e da6a 383e 3ae6 093e
000002a0: 397e fcbd 00c4 60be 384d 953d 9aa6 15be
000002b0: 6812 eebd ec2e 2b3e 5250 40be 0072 793c
000002c0: e89b 3cbe e293 17be a4b0 4abe b0f7 613e
000002d0: dd81 3bbe e90b 50be a641 173e f62f a4bd
000002e0: 5f80 f9bd 7257 75be c809 48be 2873 213e
000002f0: e416 0ebd 207e 3d3d 791a 50be 46fc 363e
00000300: b7ae 52be eb48 67be 60f8 61bd 300c b5bd
00000310: b2e7 91bd 88be a2bc 3823 6d3e 289f 283d
00000320: a875 3f3e d035 4e3e 1012 5c3d 604b ebbb
00000330: dcce 47bd f0ca 743e 5c3a 50be f5a8 19be
00000340: 122c 33be 723a 82bd 4f50 40be 80a1 c63a
00000350: 981c a2bd 0213 6c3e d9c7 41be 40b1 b33c
00000360: 9b6b 07be c2cb 223e 24b1 0bbe 5c33 6cbe
00000370: 202f 69be 082c 653e 00bf 093b 281f 323e
00000380: 0866 36bd 0ea3 27be baa1 103e c08a ff3d
00000390: f73b 5abe 6418 2abe f758 f4bd 2c4f 4dbd
000003a0: faf6 8dbd cc52 533e 808d 313c 4810 44be
000003b0: 3027 77bc f6f3 73be f04d 41be 58b5 763d
000003c0: 2ccd 993f 5174 f23e 22e2 29bf e78b c1bf
000003d0: 37bf 243f 5bd6 d23e 12dc 1d3f c033 a53f
000003e0: 79f6 32bd 7921 523d 0211 06bc be94 b63e
000003f0: c181 b33d 4ba0 22be 36f0 be3e 5005 353f

sequential_5/dense_11/MatMul f4 [25, 64]
0.022444755 1.5316423 0.19192311 -0.14016598 0.032194257 0.038298458 0.44546223 -1.5266235
-0.7951142 0.20519356 0.8827954 -0.2520742 1.0925283 0.03242674 -0.04988718 -0.21312414
-2.3060498 -0.5189046 -0.78315586 0.40623277 0.0804131 1.7370366 -1.9452373 -1.2296335
-0.7753692 -0.006933327 -2.461261 0.41298524 -0.5396497 -0.10658568 0.19967377 -3.5532286
0.17317867 1.9922801 -0.24241681 0.23431084 0.024555137 -0.15661302 -0.20075598 -0.08046632
0.2272265 1.0502291 -0.6981813 -0.11401464 -2.6274817 -0.06470835 -0.29120043 -0.1165588
0.014057219 -2.3922012 0.13270101 -2.0463607 1.386224 0.04946905 -3.325638 -0.12937383
-3.2016368 0.0105777085 -1.0813031 -0.43285376 0.17625862 -0.053752553 -7.6112976 -0.37485012
0.1418586 -10.434456 -1.1949719 -0.0031889975 0.18074405 -0.1901995 -4.002064 2.8885174
2.8180428 -0.18746775 0.52159417 0.18135029 -0.7034708 -2.4138968 -0.24986304 0.032610446
1.8926572 -0.83153266 1.2042415 -2.1333122 -0.0287247 -2.97213 1.009938 1.3660903
0.67028695 0.2345194 2.4237514 1.298908 2.1675894 -0.085464135 0.05168607 -9.695749
-0.16260925 -2.613968 0.11954486 -0.027507795 0.116847165 -0.20724532 0.21484637 -3.9881527
0.00047919154 -2.2498262 2.1730642 -0.046572387 1.2247069 0.058119785 1.5691903 -0.10808379
-0.009813383 0.4082169 -11.509464 -0.65633744 0.3477966 -2.796017 3.3851955 -0.07748683
0.94444907 -0.19619933 -2.4022937 -2.271472 -0.19925156 0.79465765 -1.7587898 -0.88633925
0.25512767 -5.660446 -1.0668702 -0.01677303 -0.11175977 0.22218221 -3.7578847 2.4299753
1.3777694 -0.24089238 0.060779683 -0.019204631 -7.946665 1.0214213 -0.113600194 -0.19263959
0.7558826 0.90581405 0.044489298 -0.010637004 -0.071288735 0.8323657 -1.9020663 0.1754514
-0.09041163 0.08310182 -6.3206415 2.5208738 -4.0754547 0.04431343 0.1760398 1.6814862
0.22484908 -2.2419982 0.006878853 0.15054005 -0.15088752 -0.16930477 -0.17129964 -0.037972786
0.08956084 1.1213834 3.0440187 0.017414242 -14.740765 -0.093822055 1.1180001 -0.21334903
-0.14195377 1.478126 -6.0699134 -2.2266424 0.0902744 0.95851696 -0.27006632 -0.25191745
-3.8388276 0.20411354 0.43435037 -2.1137133 -0.0943245 1.1111178 -1.9318981 -0.19137354
-0.24357341 0.65756935 0.104938224 0.058597535 -0.13409422 0.23584557 0.81915987 -0.049329545
1.5637575 0.15093108 0.6760468 0.024516761 -7.411367 2.2089853 -0.22446346 0.20276612
-3.3839896 0.868812 -1.1613096 0.21165563 0.004237175 1.872915 -5.471602 -3.6872468
-2.942305 0.040876556 -9.863515 -0.084915854 -1.0457717 -0.02289252 0.22769459 0.5542511
-0.07606885 -0.20158434 -0.16499133 -0.3001557 -0.12616174 0.10917598 0.08672419 -0.08799003
0.24562341 1.4534082 0.5399971 -0.14284693 -5.6133494 0.16349077 0.99794406 0.15855752
0.11627382 -0.38236758 0.55880207 -3.4462209 -1.6126741 0.174737 1.7423376 -0.12697108
-11.336272 -0.17950492 -2.6821256 -1.4007359 0.21035221 -2.0055044 -2.748985 0.7461511
00000000: 10de b73c db0c c43f 7e87 443e ac87 0fbe
00000010: 20de 033d d8de 1c3d a013 e43e 6668 c3bf
00000020: 9b8c 4bbf 431e 523e e1fe 613f df0f 81be
00000030: f8d7 8b3f e7d1 043d 8056 4cbd 373d 5abe
00000040: 5296 13c0 efd6 04bf e77c 48bf befd cf3e
00000050: a0af a43d 3757 de3f 89fd f8bf a164 9dbf
00000060: 997e 46bf f630 e3bb 4d85 1dc0 cd72 d33e
00000070: 7c26 0abf 9849 dabd 4877 4c3e 1968 63c0
00000080: c055 313e 0903 ff3f 1d3c 78be 2eef 6f3e
00000090: db27 c93c 2a5f 20be fa92 4dbe 87cb a4bd
000000a0: 10ae 683e e86d 863f 02bc 32bf 8280 e9bd
000000b0: a928 28c0 d085 84bd 3918 95be 61b6 eebd
000000c0: 4050 663c d319 19c0 c6e2 073e 93f7 02c0
000000d0: ca6f b13f 0fa0 4a3d 41d7 54c0 937a 04be
000000e0: 9ee7 4cc0 204e 2d3c 2468 8abf 029f ddbe
000000f0: 247d 343e a32b 5cbd c08f f3c0 5bec bfbe
00000100: 6143 113e 88f3 26c1 d7f4 98bf 80fe 50bb
00000110: f814 393e a8c3 42be e910 80c0 78dd 3840
00000120: d05a 3440 8cf7 3fbe 3287 053f e4b3 393e
00000130: aa16 34bf 497d 1ac0 19dc 7fbe 8892 053d
00000140: 9742 f23f 53df 54bf 9624 9a3f 3088 08c0
00000150: 1050 ebbc 6137 3ec0 a645 813f 0cdc ae3f
00000160: ed97 2b3f db25 703e be1e 1b40 9e42 a63f
00000170: c9b9 0a40 d207 afbd c6b4 533d ca21 1bc1
00000180: 0a83 26be 404b 27c0 f0d3 f43d 0758 e1bc
00000190: 914d ef3d 1e38 54be b000 5c3e e53d 7fc0
000001a0: 003c fb39 27fd 0fc0 7c13 0b40 b0c2 3ebd
000001b0: 32c3 9c3f 030f 6e3d 3adb c83f 095b ddbd
000001c0: 50c8 20bc ce01 d13e c426 38c1 bb05 28bf
000001d0: 6512 b23e f1f1 32c0 0ba7 5840 6ab1 9ebd
000001e0: 6ac7 713f 7ae8 48be 2ebf 19c0 cc5f 11c0
000001f0: 9a08 4cbe af6e 4b3f 0620 e1bf 21e7 62bf
00000200: 18a0 823e 6022 b5c0 348f 88bf 9867 89bc
00000210: 4ee2 e4bd bc83 633e 2f81 70c0 b784 1b40
00000220: bf5a b03f 7eac 76be 1ef4 783d 0853 9dbc
00000230: 144b fec0 efbd 823f 38a7 e8bd 5043 45be
00000240: 8681 413f 6ee3 673f 693a 363d d446 2ebc
00000250: d4ff 91bd eb15 553f e976 f3bf 88a9 333e
00000260: bc29 b9bd 4931 aa3d b242 cac0 ff55 2140
00000270: 206a 82c0 0082 353d c743 343e f13a d73f
00000280: d63e 663e e67c 0fc0 0068 e13b 2c27 1a3e
00000290: 4282 1abe 3b5e 2dbe 2c69 2fbe 5a89 1bbd
000002a0: ac6b b73d 7e89 8f3f 34d1 4240 50a8 8e3c
000002b0: 2cda 6bc1 c725 c0bd a11a 8f3f 2b78 5abe
000002c0: 545c 11be 3c33 bd3f bb3c c2c0 4f81 0ec0
000002d0: c9e1 b83d 5e61 753f 2246 8abe 53fb 80be
000002e0: 5aaf 75c0 2403 513e 2c63 de3e 1447 07c0
000002f0: 342d c1bd 1c39 8e3f 7048 f7bf 6df7 43be
00000300: 4f6b 79be 7756 283f dae9 d63d f803 703d
00000310: ff4f 09be 8081 713e 76b4 513f c70d 4abd
00000320: 3529 c83f ad8d 1a3e 6711 2d3f 60d7 c83c
00000330: eb29 edc0 0460 0d40 c0d9 65be eca1 4f3e
00000340: 4993 58c0 776a 5e3f cba5 94bf 41bc 583e
00000350: 00d8 8a3b aebb ef3f 5d17 afc0 dafb 6bc0
00000360: ba4e 3cc0 2d6e 273d f5d0 1dc1 5de8 adbd
00000370: d9db 85bf 1889 bbbc c528 693e 66e3 0d3f
00000380: fcc9 9bbd 206c 4ebe 7df3 28be 02ae 99be
00000390: 8b30 01be a897 df3d 749c b13d 1e34 b4bd
000003a0: b484 7b3e 4809 ba3f 403d 0a3f 7746 12be
000003b0: 8fa0 b3c0 206a 273e 4379 7f3f e75c 223e
000003c0: f820 ee3d afc5 c3be a70d 0f3f e28e 5cc0
000003d0: 1b6c cebf 42ee 323e eb04 df3f b504 02be
000003e0: 5f61 35c1 23d0 37be f2a7 2bc0 504b b3bf
000003f0: 9266 573e 2f5a 00c0 5fef 2fc0 c203 3f3f
